model.pt (torch, 109748 bytes, 6 tensors)

convs.convs.0.bias f4 [64]
0.0 0.0 0.0 0.0 0.0 0.0 0.0 0.0
0.0 0.0 0.0 0.0 0.0 0.0 0.0 0.0
0.0 0.0 0.0 0.0 0.0 0.0 0.0 0.0
0.0 0.0 0.0 0.0 0.0 0.0 0.0 0.0
0.0 0.0 0.0 0.0 0.0 0.0 0.0 0.0
0.0 0.0 0.0 0.0 0.0 0.0 0.0 0.0
0.0 0.0 0.0 0.0 0.0 0.0 0.0 0.0
0.0 0.0 0.0 0.0 0.0 0.0 0.0 0.0
00000000: 0000 0000 0000 0000 0000 0000 0000 0000
00000010: 0000 0000 0000 0000 0000 0000 0000 0000
00000020: 0000 0000 0000 0000 0000 0000 0000 0000
00000030: 0000 0000 0000 0000 0000 0000 0000 0000
00000040: 0000 0000 0000 0000 0000 0000 0000 0000
00000050: 0000 0000 0000 0000 0000 0000 0000 0000
00000060: 0000 0000 0000 0000 0000 0000 0000 0000
00000070: 0000 0000 0000 0000 0000 0000 0000 0000
00000080: 0000 0000 0000 0000 0000 0000 0000 0000
00000090: 0000 0000 0000 0000 0000 0000 0000 0000
000000a0: 0000 0000 0000 0000 0000 0000 0000 0000
000000b0: 0000 0000 0000 0000 0000 0000 0000 0000
000000c0: 0000 0000 0000 0000 0000 0000 0000 0000
000000d0: 0000 0000 0000 0000 0000 0000 0000 0000
000000e0: 0000 0000 0000 0000 0000 0000 0000 0000
000000f0: 0000 0000 0000 0000 0000 0000 0000 0000

convs.convs.0.lin.weight f4 [64, 384]
0.06600562 -0.037486568 -0.030496098 -0.023320176 0.06811559 0.06206231 -0.034656733 0.010095686
0.08657606 0.0135489255 -0.0015957057 -0.061696187 0.022592545 0.041765794 -0.049421117 -0.073811576
0.07686646 0.018918589 0.06747794 -0.087338194 0.013525307 0.09084077 -0.018559441 0.0012980998
0.0009339228 0.025713846 0.00789845 -0.046697415 0.06219828 0.013054252 -0.070364155 0.07549009
-0.09615138 -0.010336868 -0.03950554 0.07553767 -0.07816891 0.11145446 0.041691437 -0.02416747
-0.04493107 -0.0724341 0.113259345 0.0022490025 0.10063662 -0.032070585 0.025567994 0.088728264
-0.09030418 0.01898837 -0.099394836 0.09859632 -0.051561035 -0.021303773 -0.0262691 -0.07120107
-0.005068384 -0.105680935 -0.040763095 0.008199558 -0.019750237 0.1125315 0.06680718 -0.061724152
-0.07398835 0.10287124 0.0602642 -0.08841845 -0.102003954 0.03378077 -0.02010031 -0.0042715073
0.03630276 0.012512878 -0.08939196 0.058149114 0.058664247 0.012228221 0.01930438 -0.005231872
-0.0020299852 -0.08584817 0.07551263 0.042902336 0.08776486 -0.06622459 -0.050705895 0.099102095
-0.10494122 0.016317397 -0.104625344 0.0583196 -0.023031719 -0.02577725 0.078803614 -0.09581718
0.029375523 -0.04379271 -0.0904581 -0.04767856 -0.081355184 0.10863039 -0.10112679 -0.017726421
0.097932324 0.0747329 -0.011396952 0.04031761 0.00750152 0.09758611 0.015832812 -0.034563996
0.10762197 0.06382212 0.09217383 -0.021912947 -0.06277847 -0.0275582 -0.022306629 0.057381064
0.07915516 -0.0057607815 -0.024150506 0.011872709 0.04439129 -0.055446498 -0.092857674 -0.016093776
-0.038543135 0.036335975 -0.11462043 0.06847988 0.06485541 -0.012945779 -0.04018691 -0.06612903
0.013933346 0.043365613 0.07475366 -0.020565003 -0.06720628 0.054344058 0.10512921 -0.107763655
-0.01345399 0.062980846 0.108940765 -0.019370578 -0.038090713 0.009680033 -0.06714703 -0.09574889
-0.046241477 0.0027953312 -0.010051534 -0.011135109 0.106695384 -0.029619679 0.057591066 0.0025737286
0.028003797 -0.058894414 0.03355275 0.08330241 0.04327792 0.0412229 0.022530228 -0.07727456
-0.0700872 -0.105821475 -0.06519668 -0.06434367 -0.007940084 0.058916554 -0.043006748 0.03293158
-0.11229355 -0.010390982 -0.006061986 0.100501955 0.05537872 0.033693433 -0.012901388 0.02361758
-0.060905218 -0.04912786 0.073498994 -0.03729765 0.004359953 -0.007558495 -0.03561949 -0.010601021
0.09722647 0.032310188 -0.0679528 -0.014762118 0.09353581 -0.05194228 0.08297993 0.08441605
-0.08021346 -0.020675741 -0.051603697 0.016832784 -0.114315666 0.10233359 -0.1091607 -0.015213631
0.018125996 0.054878116 -0.06472747 0.091192245 0.09541932 -0.049129017 0.103569195 0.07305072
0.001862891 -0.03521102 -0.058159716 -0.0342514 -0.08126692 0.027185857 -0.005544901 -0.083153285
0.06748581 0.095244825 -0.02867791 0.09189013 -0.039367363 -0.01590909 -0.060169917 -0.08647287
0.072922856 0.011091739 -0.0828667 0.114760324 -0.011301361 0.079943866 -0.0067301244 -0.019643404
-0.016580313 -0.07326153 0.048872635 -0.02540169 -0.014486149 -0.050025813 0.0024969727 0.06475057
-0.08342982 0.090935424 0.07001099 0.061286315 0.09824324 -0.10255712 -0.08099271 -0.11046406
00000000: f42d 873d 848b 19bd f4d2 f9bc f409 bfbc
00000010: 3080 8b3d 0c35 7e3d 38f4 0dbd 6068 253c
00000020: ca4e b13d 50fc 5d3c 0027 d1ba 24b5 7cbd
00000030: 0014 b93c 9c12 2b3d cc6d 4abd 862a 97bd
00000040: 2a6c 9d3d 28fb 9a3c e031 8a3d 5ede b2bd
00000050: 4099 5d3c ba0a ba3d f809 98bc 0025 aa3a
00000060: 80d2 743a d8a5 d23c 8068 013c ca45 3fbd
00000070: a0c3 7e3d 80e1 553c 151b 90bd 8c9a 9a3d
00000080: 04eb c4bd f85b 29bc 90d0 21bd 7eb3 9a3d
00000090: 0617 a0bd 3c42 e43d a4c4 2a3d dcfa c5bc
000000a0: a409 38bd 5458 94bd 84f4 e73d 0064 133b
000000b0: 921a ce3d 725c 03bd f873 d13c 2ab7 b53d
000000c0: 66f1 b8bd 808d 9b3c 858f cbbd deec c93d
000000d0: aa31 53bd 4085 aebc 4c32 d7bc ded1 91bd
000000e0: b014 a6bb 3f6f d8bd 34f7 26bd 7057 063c
000000f0: 40cb a1bc ea76 e63d 34d2 883d 77d2 7cbd
00000100: 3487 97bd 28ae d23d 98d7 763d bb14 b5bd
00000110: 73e7 d0bd b45d 0a3d 68a9 a4bc 00f8 8bbb
00000120: 34b2 143d d002 4d3c 2213 b7bd c42d 6e3d
00000130: ec49 703d e058 483c 3824 9e3c 2070 abbb
00000140: 8009 05bb 2ad1 afbd 5ea6 9a3d 5cba 2f3d
00000150: 10be b33d c2a0 87bd fcb0 4fbd 0af6 ca3d
00000160: 6ceb d6bd 10ac 853c d045 d6bd 88e0 6e3d
00000170: 04ad bcbc d02a d3bc ca63 a13d cc3b c4bd
00000180: f0a4 f03c fc5f 33bd 1942 b9bd 984a 43bd
00000190: 8c9d a6bd 9c79 de3d 901b cfbd 0037 91bc
000001a0: be90 c83d 900d 993d 48ba 3abc 1424 253d
000001b0: 50cf f53b 3adb c73d d0b3 813c fa92 0dbd
000001c0: e868 dc3d 2cb5 823d a2c5 bc3d c882 b3bc
000001d0: 0092 80bd bcc1 e1bc 64bc b6bc 6808 6b3d
000001e0: 1a1c a23d f0c4 bcbb 48d7 c5bc c085 423c
000001f0: a4d3 353d de1b 63bd 2a2c bebd 18d7 83bc
00000200: 68df 1dbd 08d5 143d 1ebe eabd 2e3f 8c3d
00000210: ead2 843d 881a 54bc 089b 24bd a86e 87bd
00000220: b048 643c 24a0 313d 7218 993d f077 a8bc
00000230: 72a3 89bd e097 5e3d fc4d d73d 31b3 dcbd
00000240: 206e 5cbc 1afc 803d 561c df3d 0caf 9ebc
00000250: 0205 1cbd 0099 1e3c 6284 89bd fe17 c4bd
00000260: b467 3dbd e031 373b 30af 24bc 0870 36bc
00000270: 1c83 da3d f8a4 f2bc 9ce4 6b3d 00ac 283b
00000280: 3868 e53c 453b 71bd 9c6e 093d 749a aa3d
00000290: 3044 313d 58d9 283d 5091 b83c 2042 9ebd
000002a0: e189 8fbd eeb8 d8bd d685 85bd 9dc6 83bd
000002b0: 2017 02bc 7c52 713d d827 30bd 44e3 063d
000002c0: 29fa e5bd f03e 2abc a0a3 c6bb f8d3 cd3d
000002d0: ccd4 623d 2002 0a3d 5860 53bc a879 c13c
000002e0: c077 79bd 4c3a 49bd a486 963d 6cc5 18bd
000002f0: f0dd 8e3b 40ad f7bb bee5 11bd e8af 2dbc
00000300: ac1e c73d b057 043d d62a 8bbd d0dc 71bc
00000310: b48f bf3d 6ec1 54bd 62f1 a93d 52e2 ac3d
00000320: f446 a4bd 2c60 a9bc 665e 53bd e8e4 893c
00000330: 551e eabd 4694 d13d a58f dfbd 9842 79bc
00000340: f87c 943c e0c7 603d d68f 84bd 00c3 ba3d
00000350: 346b c33d 823b 49bd 161c d43d 9e9b 953d
00000360: 402c f43a 6e39 10bd e238 6ebd 324b 0cbd
00000370: 456f a6bd e0b4 de3c 00b2 b5bb 454c aabd
00000380: 0036 8a3d b80f c33d f0ed eabc e430 bc3d
00000390: ac3f 21bd c853 82bc bb74 76bd b018 b1bd
000003a0: 9458 953d 20ba 353c 04b6 a9bd 7607 eb3d
000003b0: 5829 39bc 9cb9 a33d 6088 dcbb 34eb a0bc
000003c0: 70d3 87bc 240a 96bd ac2e 483d 3417 d0bc
000003d0: 5057 6dbc dee7 4cbd 40a4 233b f29b 843d
000003e0: 41dd aabd 5a3c ba3d ec61 8f3d 5c07 7b3d
000003f0: c033 c93d 7809 d2bd 82df a5bd fb3a e2bd

mlp.0.weight f4 [32, 64]
-0.010292053 -0.10631809 -0.09628388 -0.072299466 0.010794297 -0.081589535 0.03355141 -0.030486286
0.038995475 0.102989435 0.041503668 0.04844801 -0.09149727 -0.09004326 0.0016200095 0.06541328
0.122606784 -0.079796374 -0.084091306 0.016563907 0.10152748 -0.02523458 0.10001515 -0.04383619
0.0020872355 0.05856487 0.011289313 -0.07984324 -0.020011783 0.09462246 0.093338 0.0627078
0.0038679987 0.042383656 -0.101885796 -0.020051599 0.015748262 0.024376303 -0.109275654 0.055717707
0.029208288 0.05822049 0.056933463 0.03180951 0.005892098 0.07383144 -0.050706938 -0.124827
-0.03054656 0.1220282 0.036192656 0.068408266 0.034661695 0.042292714 -0.06796394 0.090210244
0.03674127 -0.12001389 0.034804568 0.043056607 0.033648133 0.08009899 0.020908222 -0.111542106
-0.09811394 0.001490131 -0.08531116 -0.065729514 -0.08017506 -0.06999673 0.10557386 -0.09226556
0.08007862 0.08992383 0.008346751 0.0064907223 0.11015917 0.031398878 0.051658988 0.048275158
-0.11212975 0.042854235 -0.008178964 -0.07263543 0.06274898 0.049140543 -0.045362756 -0.080205336
-0.026489824 0.075877234 -0.11776443 -0.049668 -0.10923861 0.05951026 0.051429912 0.08014186
0.11260444 -0.05967377 -0.0025381595 0.062745765 0.04903756 -0.057608545 -0.038539574 -0.045331568
-0.11316821 -0.032402143 -0.018125728 -0.09905681 -0.08079222 0.039830893 -0.041058272 0.101748094
-0.082874954 -0.009942025 -0.097825915 -0.08062543 0.04671432 0.11409694 -0.08887443 0.072010756
0.12332049 0.08768393 -0.08891936 0.07244933 0.11784455 -0.09498657 -0.08892058 0.008960426
-0.0024395138 0.03988655 -0.065536454 0.077861816 -0.10626382 0.0062910467 -0.05592841 0.08935565
0.0046895444 0.021551564 -0.1187343 0.11434561 -0.090143204 0.10229556 0.058713973 -0.12110269
0.04914184 0.053628236 0.08885719 0.07876088 0.029398441 -0.11469886 0.058468655 0.0036313832
-0.019847885 0.11706108 -0.04044351 0.12486419 0.07718599 0.11231218 0.087165445 0.09387426
0.09902814 -0.11996694 0.09782857 -0.09250483 0.09960355 0.07758668 -0.024751887 0.08315784
-0.098732516 0.08627938 0.054736942 0.088620156 -0.065611064 0.07434009 -0.09841724 -0.11600877
0.04479228 0.08489126 0.02751194 0.043087587 -0.003930688 0.092490464 -0.10337973 0.051124364
0.08792478 -0.024383828 0.04120414 -0.0036228746 -0.061351553 -0.06702362 -0.04371719 -0.06534918
-0.07208465 0.07167517 -0.044870853 -0.072402656 -0.050322875 0.096389994 -0.032457605 -0.049415678
0.07717356 -0.03966327 -0.08214249 0.104323 -0.07200545 -0.121297255 -0.11497106 -0.016086519
-0.058361456 0.031337857 0.089374974 -0.07014565 0.03510925 -0.007761553 0.09945141 -0.1243031
-0.09722526 0.039560974 -0.030977324 -0.04569149 0.06594753 0.050521463 -0.0010111779 0.10145567
-0.054710507 0.105308264 0.009267449 0.06490418 0.037929952 -0.07055543 0.024421215 0.059418052
-0.08289583 0.01135394 0.051898286 0.054597378 -0.02106899 0.05334446 -0.07722886 -0.018478036
0.11529696 -0.026374191 -0.0744185 -0.12175484 0.10131122 0.047454566 0.03946823 -0.06146145
0.008846432 0.090715244 0.12047657 -0.019433469 -0.03102538 0.086517155 0.111037 -0.095439255
00000000: 00a0 28bc 4cbd d9bd 7c30 c5bd be11 94bd
00000010: 90da 303c 6a18 a7bd 346d 093d 60be f9bc
00000020: b8b9 1f3d 20ec d23d c0ff 293d 6c71 463d
00000030: ec62 bbbd 9a68 b8bd 8056 d43a 66f7 853d
00000040: 4419 fb3d 486c a3bd 1038 acbd 08b1 873c
00000050: a4ed cf3d c0b8 cebc bed4 cc3d 948d 33bd
00000060: 00ca 083b b8e1 6f3d d0f6 383c da84 a3bd
00000070: c0ef a3bc 6cc9 c13d fe27 bf3d f26c 803d
00000080: 407e 7d3b 7c9a 2d3d 80a9 d0bd 4043 a4bc
00000090: 8002 813c d0b0 c73c eacb dfbd 4038 643d
000000a0: 3846 ef3c 9c78 6e3d 1033 693d b04a 023d
000000b0: 8012 c13b f034 973d 14b2 4fbd 4ca5 ffbd
000000c0: c83c fabc ece9 f93d c03e 143d a219 8c3d
000000d0: 6cf9 0d3d 203b 2d3d ae30 8bbd 26c0 b83d
000000e0: 047e 163d d8c9 f5bd 3c8f 0e3d 205c 303d
000000f0: a0d2 093d f00a a43d b847 ab3c 3070 e4bd
00000100: f6ef c8bd 8050 c33a 9eb7 aebd 329d 86bd
00000110: d232 a4bd 725a 8fbd 1c37 d83d baf5 bcbd
00000120: 4200 a43d fc29 b83d d0c0 083c 20b0 d43b
00000130: 229b e13d 1c9c 003d 6098 533d 2cbc 453d
00000140: 48a4 e5bd ec87 2f3d 1001 06bc e2c1 94bd
00000150: 8a82 803d 9847 493d 4cce 39bd b242 a4bd
00000160: 3001 d9bc 8665 9b3d 7a2e f1bd ac70 4bbd
00000170: 7eb8 dfbd 08c1 733d 2ca8 523d 6a21 a43d
00000180: 289d e63d 7c6c 74bd 4057 26bb da80 803d
00000190: 9cdb 483d f0f6 6bbd acdb 1dbd 98ad 39bd
000001a0: bcc4 e7bd 1cb8 04bd 687c 94bc 4cde cabd
000001b0: 6476 a5bd b825 233d b82c 28bd 4e61 d03d
000001c0: 58ba a9bd e0e3 22bc f458 c8bd f21e a5bd
000001d0: 8457 3f3d a8ab e93d cc03 b6bd 607a 933d
000001e0: 748f fc3d a293 b33d 5a1b b6bd 5060 943d
000001f0: 7c58 f13d 5288 c2bd fe1b b6bd c0ce 123c
00000200: 40e0 1fbb 1460 233d fa37 86bd 0476 9f3d
00000210: d8a0 d9bd 2025 ce3b 3015 65bd 1800 b73d
00000220: c0aa 993b e88c b03c f82a f3bd 082e ea3d
00000230: 009d b8bd 5680 d13d 107e 703d b004 f8bd
00000240: f448 493d 48a9 5b3d c2fa b53d 624d a13d
00000250: 00d5 f03c 3ce7 eabd d47c 6f3d 80fc 6d3b
00000260: 0898 a2bc b8bd ef3d 18a8 25bd ccb8 ff3d
00000270: b013 9e3d ee03 e63d cc83 b23d 2641 c03d
00000280: 44cf ca3d 3ab1 f5bd 585a c83d 2c73 bdbd
00000290: f2fc cb3d c4e5 9e3d 78c4 cabc a84e aa3d
000002a0: 4634 cabd 3eb3 b03d d833 603d 7c7e b53d
000002b0: 185f 86bd 9e3f 983d fa8e c9bd 0296 edbd
000002c0: 1c78 373d 78db ad3d b860 e13c 9c7c 303d
000002d0: 00cd 80bb a46b bd3d c0b8 d3bd c867 513d
000002e0: e811 b43d 98c0 c7bc acc5 283d c06d 6dbb
000002f0: c44b 7bbd ae43 89bd cc10 33bd cad5 85bd
00000300: 1ea1 93bd 6eca 923d 80ca 37bd d847 94bd
00000310: 5c1f 4ebd 1e68 c53d 44f2 04bd 1868 4abd
00000320: 2c0d 9e3d f475 22bd 523a a8bd 4ca7 d53d
00000330: 9877 93bd b26a f8bd f275 ebbd e0c7 83bc
00000340: 6c0c 6fbd 205c 003d 3a0a b73d 86a8 8fbd
00000350: b8ce 0f3d a054 febb 2ead cb3d a092 febd
00000360: 0a1e c7bd b00a 223d 28c4 fdbc 0027 3bbd
00000370: 800f 873d 98ef 4e3d 8089 84ba fec7 cf3d
00000380: 2018 60bd dcab d73d 80d6 173c 7cec 843d
00000390: 705c 1b3d 5e7f 90bd 000f c83c 5860 733d
000003a0: 4ac5 a9bd e005 3a3c 4c93 543d 80a1 5f3d
000003b0: e098 acbc b87f 5a3d 2a2a 9ebd 405f 97bc
000003c0: d020 ec3d b00e d8bc ba68 98bd 9a5a f9bd
000003d0: 427c cf3d b85f 423d 70a9 213d 00bf 7bbd
000003e0: a0f0 103c eac8 b93d 6cbc f63d f032 9fbc
000003f0: f028 febc e82f b13d 5e67 e33d a875 c3bd

mlp.0.bias f4 [32]
0.11604528 0.04967086 0.06815016 -0.024754971 0.004506856 0.10414608 -0.0994641 0.009635344
-0.01180242 0.10480277 0.026535586 0.0023169518 -0.08287719 0.0035028309 0.0045998245 0.06510958
-0.100415766 0.08181602 -0.036006153 0.008989409 0.038012505 -0.011220261 -0.008741766 0.04486768
0.0572723 -0.09513891 -0.027480856 0.03739515 -0.059740752 -0.1057405 0.0631019 0.06435458
00000000: 26a9 ed3d ac73 4b3d 5092 8b3d f0ca cabc
00000010: 40ae 933b 8a4a d53d d6b3 cbbd 90dd 1d3c
00000020: f05e 41bc d6a2 d63d 2861 d93c 00d8 173b
00000030: 84bb a9bd c08f 653b 20ba 963b 2c58 853d
00000040: c8a6 cdbd 288f a73d 307b 13bd 5048 133c
00000050: 00b3 1b3d 30d5 37bc a039 0fbc 2cc7 373d
00000060: 5c96 6a3d 30d8 c2bd 881f e1bc a82b 193d
00000070: b8b2 74bd 7a8e d8bd 923b 813d 56cc 833d

mlp.3.weight f4 [2, 32]
0.023178488 0.0050376654 -0.049615055 0.095301226 0.09675421 0.15831564 0.06299114 -0.010426283
-0.015781447 0.04596731 -0.013835341 -0.102594785 0.036872804 0.065639526 0.12597169 -0.013277501
-0.04605639 -0.0014923811 -0.021896377 -0.12499691 0.1150323 -0.16498782 -0.09515125 -0.011549011
0.058683634 0.03367588 -0.0031080097 -0.07325586 -0.13191152 -0.08864947 0.049021482 -0.014287338
0.14154147 0.007944852 -0.037345603 -0.16234763 -0.07904156 0.01450105 0.089591816 -0.1694578
0.052289397 -0.054746248 0.16085015 -0.080275096 0.06832042 -0.12844987 0.0832483 0.1712551
-0.01495488 -0.043216348 -0.066430956 -0.06456984 -0.05298531 0.07809703 0.15983607 -0.05075869
-0.019776896 0.04762116 -0.10459303 -0.046947017 -0.094556324 -0.09242751 0.15023296 -0.042689115
00000000: d0e0 bd3c 0013 a53b 2839 4bbd 4a2d c33d
00000010: 1227 c63d 7f1d 223e 8001 813d 00d3 2abc
00000020: 1848 81bc 3848 3c3d a0ad 62bc 371d d2bd
00000030: f007 173d 046e 863d b9fe 003e e089 59bc
00000040: a0a5 3cbd 009c c3ba 0860 b3bc 61fe ffbd
00000050: 0e96 eb3d 91f2 28be a9de c2bd 1038 3dbc
00000060: 405e 703d b8ef 093d c0af 4bbb 2b07 96bd
00000070: d013 07be da8d b5bd c0ca 483d 7015 6abc
00000080: 3ff0 103e 202b 023c b4f7 18bd 753e 26be
00000090: 8be0 a1bd d095 6d3c ea7b b73d 5886 2dbe
000000a0: 682d 563d 9a3d 60bd e7b5 243e 4567 a4bd
000000b0: 94eb 8b3d 5d88 03be 167e aa3d 7f5d 2f3e
000000c0: 5005 75bc a003 31bd f40c 88bd 313d 84bd
000000d0: 2007 59bd 56f1 9f3d 11ac 233e 58e8 4fbd
000000e0: 2803 a2bc 680e 433d df34 d6bd 844b 40bd
000000f0: bfa6 c1bd a24a bdbd abd6 193e c8da 2ebd

mlp.3.bias f4 [2]
-0.17230935 0.033633903
00000000: dd71 30be b4c3 093d
