model2.pt (torch, 126533 bytes, 8 tensors)

convs.convs.0.bias f4 [64]
000000 00 00 00 00 00 00 00 00 00 00 00 00 00 00 00 00
       0.0 0.0 0.0 0.0
000010 00 00 00 00 00 00 00 00 00 00 00 00 00 00 00 00
       0.0 0.0 0.0 0.0
000020 00 00 00 00 00 00 00 00 00 00 00 00 00 00 00 00
       0.0 0.0 0.0 0.0
000030 00 00 00 00 00 00 00 00 00 00 00 00 00 00 00 00
       0.0 0.0 0.0 0.0
000040 00 00 00 00 00 00 00 00 00 00 00 00 00 00 00 00
       0.0 0.0 0.0 0.0
000050 00 00 00 00 00 00 00 00 00 00 00 00 00 00 00 00
       0.0 0.0 0.0 0.0
000060 00 00 00 00 00 00 00 00 00 00 00 00 00 00 00 00
       0.0 0.0 0.0 0.0
000070 00 00 00 00 00 00 00 00 00 00 00 00 00 00 00 00
       0.0 0.0 0.0 0.0
000080 00 00 00 00 00 00 00 00 00 00 00 00 00 00 00 00
       0.0 0.0 0.0 0.0
000090 00 00 00 00 00 00 00 00 00 00 00 00 00 00 00 00
       0.0 0.0 0.0 0.0
0000a0 00 00 00 00 00 00 00 00 00 00 00 00 00 00 00 00
       0.0 0.0 0.0 0.0
0000b0 00 00 00 00 00 00 00 00 00 00 00 00 00 00 00 00
       0.0 0.0 0.0 0.0
0000c0 00 00 00 00 00 00 00 00 00 00 00 00 00 00 00 00
       0.0 0.0 0.0 0.0
0000d0 00 00 00 00 00 00 00 00 00 00 00 00 00 00 00 00
       0.0 0.0 0.0 0.0
0000e0 00 00 00 00 00 00 00 00 00 00 00 00 00 00 00 00
       0.0 0.0 0.0 0.0
0000f0 00 00 00 00 00 00 00 00 00 00 00 00 00 00 00 00
       0.0 0.0 0.0 0.0

convs.convs.0.lin.weight f4 [64, 384]
000000 81 c1 e9 bd ed 22 c7 bd 1c f3 c9 bd 50 46 77 3c
       -0.11413861 -0.097234584 -0.098608226 0.015092447
000010 da b8 97 3d 78 f2 8d 3d f0 11 73 3c 10 97 f2 3b
       0.074083045 0.06931013 0.01483582 0.007403262
000020 c0 31 7d bc 68 3e 40 3d 58 d6 ae 3d 50 1f 77 bc
       -0.015453756 0.046934515 0.085369766 -0.015083149
000030 ce ba 97 3d 3c 91 a4 3d b2 4c 7f bd 3e f9 ce 3d
       0.07408677 0.08035514 -0.062329 0.10106133
000040 de c1 d8 3d b0 dc 74 bc 1c da 6c 3d 06 ee c2 3d
       0.10583852 -0.014945194 0.057825193 0.095180556
000050 26 44 d1 bd f4 65 68 bd 84 7d cc bc 4c 7d e3 bd
       -0.102180764 -0.056737855 -0.024962194 -0.11107883
000060 4c e8 68 3d c2 18 b0 bd e8 86 f6 3c 44 e4 68 3d
       0.05686216 -0.08598472 0.030093625 0.056858316
000070 0e ab c5 3d 10 bd 2c 3d 8a 78 22 bd 08 bd 54 3d
       0.09651767 0.04217249 -0.039665736 0.051938087
000080 50 74 bf 3d a4 8c 8e 3d c4 cc 88 bc d8 d1 82 3d
       0.09348357 0.06960419 -0.016699202 0.06387681
000090 e0 c9 ec bd 30 b6 35 3c a4 b2 7e 3d 4f 6e 5f bd
       -0.11561942 0.0110908 0.062182084 -0.054548558
0000a0 33 94 b5 bd 20 af a5 3d 40 eb e3 3b be dc 29 bd
       -0.088661574 0.08090043 0.006955534 -0.04147028
0000b0 d4 fd 57 3d e0 40 3a bb 9a 3f 85 bd 40 76 c3 3d
       0.052732304 -0.0028420016 -0.06506272 0.09544039
0000c0 30 91 1c bc 0c 72 11 3d 69 f8 e7 bd 96 71 55 bd
       -0.0095561 0.035509154 -0.11326677 -0.052110277
0000d0 4a 31 a9 3d e2 1b c7 3d 70 37 72 bc 00 ea e0 bb
       0.08261354 0.09722115 -0.014783725 -0.0068638325
0000e0 02 25 ab 3d 8c 0f e4 3d e8 c5 61 bd a0 e5 a2 3b
       0.08356668 0.11135778 -0.05512038 0.004971221
0000f0 38 8b 23 bd 6c c6 a4 3d d6 3d bc bd 86 84 bf 3d
       -0.03992769 0.080456585 -0.09191482 0.09351449
000100 98 a2 11 3c c0 66 0b bd 88 1e 09 bc 70 9d c0 bb
       0.008888863 -0.034033537 -0.008369096 -0.005878143
000110 82 15 ae 3d 3c db 15 bd a0 49 27 3d f8 e8 fd bc
       0.08500196 -0.03658603 0.0408417 -0.030994877
000120 bd c3 bc bd ee 8d c7 bd a8 7e 1e bc a0 6a f5 bb
       -0.092170216 -0.09743868 -0.009673752 -0.0074895173
000130 50 30 dd bb 60 59 2b 3d c5 e0 d3 bd 94 7f d1 bd
       -0.006750144 0.04183328 -0.10345606 -0.10229412
000140 b0 e3 1d bd d6 70 10 bd 42 a0 5a bd 92 f5 b1 3d
       -0.038547218 -0.03526386 -0.05337549 0.08689417
000150 78 cd b5 3d 58 b7 06 3d e1 ed 86 bd 94 a3 4d 3d
       0.08877081 0.032889694 -0.065883406 0.05020483
000160 cb 75 da bd 50 c5 6e 3d c0 98 ec 3d 7a c7 d0 3d
       -0.106669985 0.05829364 0.11552572 0.10194297
000170 8c 99 86 bd 0c 59 c5 bd d2 5e a9 3d 1d 30 c0 bd
       -0.065722555 -0.09636125 0.08270039 -0.09384177
000180 60 ca 63 bb bc 3d 71 3d b8 4b 79 bd cc 93 5c 3d
       -0.0034758076 0.058896765 -0.060863227 0.053851888
000190 94 bc 9c bd 50 14 e7 3d 3c 9a 98 3d c7 24 ba bd
       -0.07653156 0.11283171 0.07451293 -0.09089046
0001a0 24 c6 43 3d c0 86 a8 ba c0 32 97 ba 0a 29 80 bd
       0.047796384 -0.0012857541 -0.001153551 -0.062578276
0001b0 ac e3 ed bc a0 80 16 3d dc 77 ac 3d 10 db 10 bd
       -0.029039226 0.03674376 0.08421299 -0.035365164
0001c0 c0 2a 03 3b ec 95 87 bc 20 b8 41 3d ad 2e 8a bd
       0.0020014495 -0.01655098 0.047294736 -0.06747184
0001d0 30 5f 90 3d 55 2f 6d bd f0 38 c7 3d 12 1a 5a bd
       0.070494056 -0.057906467 0.09727657 -0.05324752
0001e0 12 62 c3 bd 88 8f 45 bc d6 75 45 bd 4a ba 0f bd
       -0.0954019 -0.012058146 -0.04820808 -0.03508977
0001f0 44 c1 ae 3d 00 91 ad 3d b8 59 c2 3d c0 c6 6c 3c
       0.08532956 0.08474922 0.09489769 0.014451683
000200 90 90 e0 bd e0 aa 12 bb dc f3 23 3d 48 d6 21 bc
       -0.10965073 -0.0022379681 0.040027484 -0.009877749
000210 af 8f 5f bd 1f 43 c6 bd c8 47 9e 3c 1a 61 9d 3d
       -0.054580387 -0.09680771 0.019321337 0.07684536
000220 2a 69 ca 3d 70 f0 17 bc 00 94 a4 39 8c 2f be bc
       0.0988334 -0.009273633 0.00031390786 -0.023216031
000230 31 89 64 bd 16 aa 77 bd c6 46 df 3d 81 da d8 bd
       -0.0557949 -0.06046494 0.10902171 -0.10588551
000240 e8 e7 5e bc 28 01 e4 3c da 9a d4 3d cc 75 5e 3d
       -0.013605095 0.027832583 0.10381098 0.05431156
000250 b8 dc e6 3c 1b a5 9b bd 2e 54 a0 3d 94 36 36 bd
       0.028181419 -0.07599851 0.07828556 -0.044485644
000260 40 0a 66 3d 61 b9 95 bd 87 b3 d5 bd 82 ce 97 3d
       0.05616212 -0.07310749 -0.10434633 0.07412435
000270 00 48 15 3b 6e e1 d5 3d dc aa cb bc 44 0c bc bc
       0.002277851 0.10443388 -0.024861746 -0.022955067
000280 bc 43 34 bd 90 7c a0 3d b3 88 bf bd 00 9c 07 3b
       -0.04400991 0.078362584 -0.09352245 0.0020692348
000290 64 d9 d6 bd 58 30 0a bc 74 61 25 3d b7 e6 89 bd
       -0.10490683 -0.008434378 0.04037614 -0.067334585
0002a0 50 a5 81 3d 50 84 d4 3d 70 6f ef 3b 08 b7 cf 3c
       0.06330359 0.10376799 0.0073069856 0.02535583
0002b0 18 bb 1c 3d c0 31 cd ba 2d 9f 88 bd 20 3f a8 bb
       0.038264364 -0.0015655085 -0.06670985 -0.005134478
0002c0 e2 06 84 3d 0c 0c 36 bd 0e 98 3c bd d8 c1 bb bd
       0.06446625 -0.044445083 -0.04604345 -0.09167832
0002d0 68 c6 c0 bc ec 22 dd bc 50 75 e6 bc a1 44 bd bd
       -0.023532107 -0.026994191 -0.02813211 -0.092416056
0002e0 c5 41 6f bd d8 f7 0f bd 80 6a 65 bc 7e 80 91 bd
       -0.058412332 -0.03514847 -0.014002442 -0.07104586
0002f0 61 66 9e bd ac a8 37 3d 8c 6a 33 3d dc 87 05 3d
       -0.07734371 0.044838592 0.043802783 0.03260027
000300 84 fc d4 3d fe d4 3d bd 62 b6 c2 3d b0 52 61 3c
       0.10399726 -0.046345703 0.09507443 0.013752624
000310 d0 c4 5e 3c ec 0b 12 3d e8 42 e4 3c 47 a3 79 bd
       0.013596728 0.0356559 0.027863935 -0.06094673
000320 35 14 9b bd e0 09 b1 bc e0 3a 38 3d e0 12 31 3d
       -0.075722136 -0.021611154 0.044978023 0.04323089
000330 16 28 8b 3d 50 3e e8 bb a8 0d 3b bd a0 d5 59 3d
       0.06794755 -0.0070875064 -0.04566732 0.053182244
000340 d0 f2 36 3d 72 25 8f 3d 5a 67 90 bd 10 b0 e1 3b
       0.044665158 0.06989564 -0.07050963 0.0068874434
000350 66 30 7f bd e0 38 01 3c c0 3e cf 3d 90 55 e7 3c
       -0.062302016 0.007887095 0.101193905 0.028239042
000360 e8 10 6f 3d ec 85 b0 3d e8 5f 84 3c c0 54 d2 ba
       0.058365732 0.086192936 0.016159013 -0.0016046986
000370 00 2c a0 3b 70 d1 96 3c 48 e2 68 3d 50 74 c8 bd
       0.0048880577 0.018410414 0.056856424 -0.0978781
000380 d0 8c ce 3b ba ad 96 3d 1c ca c6 3d 82 b6 a2 bd
       0.0063034073 0.073573545 0.09706518 -0.07944967
000390 da 30 c3 3d 62 82 46 bd 06 a0 b6 3d 1c e8 85 bc
       0.09530802 -0.048464186 0.08917241 -0.01634603
0003a0 b6 84 95 bd d8 d6 8f 3c 4e 01 c1 3d a0 ac de bc
       -0.07300703 0.0175585 0.09424077 -0.027181923
0003b0 1e d0 b2 bd 04 87 26 3d 20 1c a8 3c 42 53 a6 3d
       -0.087311015 0.040656105 0.020521224 0.08121349
0003c0 40 8a 94 3d 44 c6 b5 bd 4b c8 e6 bd a0 dc 2f bd
       0.072529316 -0.08875707 -0.112686716 -0.042935014
0003d0 a0 0c 46 3d 32 2a 89 3d 70 f6 98 3d 68 4e 0f 3d
       0.048351884 0.06697501 0.07468879 0.034986883
0003e0 79 92 b2 bd e4 f7 d7 3d 60 2c 27 3d 80 de 02 3d
       -0.08719344 0.10545328 0.040813804 0.031950474
0003f0 c0 93 13 3b bc 8b 9e 3d 00 00 a5 b8 78 e9 84 bd
       0.0022518486 0.07741496 -7.867813e-05 -0.06489843

convs.convs.1.bias f4 [64]
000000 00 00 00 00 00 00 00 00 00 00 00 00 00 00 00 00
       0.0 0.0 0.0 0.0
000010 00 00 00 00 00 00 00 00 00 00 00 00 00 00 00 00
       0.0 0.0 0.0 0.0
000020 00 00 00 00 00 00 00 00 00 00 00 00 00 00 00 00
       0.0 0.0 0.0 0.0
000030 00 00 00 00 00 00 00 00 00 00 00 00 00 00 00 00
       0.0 0.0 0.0 0.0
000040 00 00 00 00 00 00 00 00 00 00 00 00 00 00 00 00
       0.0 0.0 0.0 0.0
000050 00 00 00 00 00 00 00 00 00 00 00 00 00 00 00 00
       0.0 0.0 0.0 0.0
000060 00 00 00 00 00 00 00 00 00 00 00 00 00 00 00 00
       0.0 0.0 0.0 0.0
000070 00 00 00 00 00 00 00 00 00 00 00 00 00 00 00 00
       0.0 0.0 0.0 0.0
000080 00 00 00 00 00 00 00 00 00 00 00 00 00 00 00 00
       0.0 0.0 0.0 0.0
000090 00 00 00 00 00 00 00 00 00 00 00 00 00 00 00 00
       0.0 0.0 0.0 0.0
0000a0 00 00 00 00 00 00 00 00 00 00 00 00 00 00 00 00
       0.0 0.0 0.0 0.0
0000b0 00 00 00 00 00 00 00 00 00 00 00 00 00 00 00 00
       0.0 0.0 0.0 0.0
0000c0 00 00 00 00 00 00 00 00 00 00 00 00 00 00 00 00
       0.0 0.0 0.0 0.0
0000d0 00 00 00 00 00 00 00 00 00 00 00 00 00 00 00 00
       0.0 0.0 0.0 0.0
0000e0 00 00 00 00 00 00 00 00 00 00 00 00 00 00 00 00
       0.0 0.0 0.0 0.0
0000f0 00 00 00 00 00 00 00 00 00 00 00 00 00 00 00 00
       0.0 0.0 0.0 0.0

convs.convs.1.lin.weight f4 [64, 64]
000000 68 9d 19 bd 32 b7 86 3d 9e ad b0 3d 84 cc 5f 3d
       -0.03750363 0.065779105 0.08626865 0.0546384
000010 93 9a 53 3e d0 df 4a be 77 78 32 3e 3c 81 44 be
       0.20664434 -0.1981194 0.17428766 -0.19189924
000020 c2 22 40 be 18 f4 a6 3c 7e 38 1d be 9c e4 2b 3d
       -0.18763259 0.020380065 -0.15353581 0.041966066
000030 6a 4d a7 3d 85 eb 3e 3e 40 a6 26 bd f7 6d d3 bd
       0.081690624 0.18644531 -0.040685892 -0.103237085
000040 2e f0 a9 3d 26 d4 b6 3d 4a 2e c5 3d 4b e4 4e 3e
       0.08297764 0.08927183 0.096279696 0.20204274
000050 28 2b d3 3c 95 2b 37 3e c4 80 9e bd 2c c7 a9 bd
       0.025777414 0.17887719 -0.07739404 -0.08289942
000060 60 f9 49 bd ca 1c ba bd 70 88 2e bd 41 bf d9 bd
       -0.04931009 -0.09087522 -0.042610586 -0.10632182
000070 58 1a 96 bd b6 49 f8 3d 04 dc 5f bd 3c 8c 05 be
       -0.073292434 0.12123434 -0.054653183 -0.13041776
000080 25 d4 1d be dd a0 0c 3e 46 ee 86 3d 9c 08 60 3d
       -0.15412958 0.1373324 0.06588416 0.05469571
000090 0c c8 56 3d dc 40 5a 3d 84 ce 56 be 20 a6 2e be
       0.052436873 0.05328451 -0.20977217 -0.17055559
0000a0 20 74 90 bd c0 41 28 3c 4c 03 37 be 33 3e 5b 3e
       -0.07053399 0.010269582 -0.17872351 0.21410446
0000b0 b3 7e da bd 3e 31 f7 3d 80 f6 3f 3b a4 9d 70 3d
       -0.10668697 0.12069939 0.0029291213 0.058744088
0000c0 92 6a c2 3d 4b 6a 1c 3e 38 3a 16 be cf fa 14 3e
       0.09492983 0.15274923 -0.14670646 0.14548801
0000d0 4c b1 4d 3d 4a b4 ba 3d ea 6c b1 3d 75 ee 48 be
       0.05021791 0.09116419 0.08663352 -0.19622214
0000e0 32 3a be 3d 80 d9 02 3b e1 6a 2b be 3c a7 14 be
       0.092884436 0.0019966066 -0.1673999 -0.1451692
0000f0 c0 63 58 bd c2 e6 ac 3d 21 97 01 3e 58 6e e3 3c
       -0.052829504 0.08442451 0.12655307 0.027762577
000100 a4 fd 1b 3d 7e 63 a4 bd a8 f9 a6 bc da 11 81 3d
       0.038083687 -0.08026789 -0.020382717 0.06302233
000110 e7 48 37 be f0 aa 1c 3c b7 e8 2f 3e 27 e6 5c 3e
       -0.17898904 0.009562239 0.17178617 0.21572171
000120 7c 0d 4b 3d 8d 92 4a 3e b9 ac 42 3e 10 da f7 bc
       0.049573407 0.19782467 0.19011201 -0.030255347
000130 65 27 03 3e 09 de 45 be 14 43 38 bd 76 56 c4 bd
       0.12807997 -0.19322981 -0.044985846 -0.095868036
000140 07 c0 1b 3e cc 36 f0 bd 9b ee 30 3e d5 df 2d be
       0.15209971 -0.11729202 0.17278521 -0.16979916
000150 b5 05 02 3e e0 ed 21 bd b7 ad 29 3e f4 f1 12 bd
       0.1269749 -0.039533496 0.16570173 -0.035875276
000160 54 ba 7a 3d 8e f0 b5 3d 24 14 00 be d7 82 14 be
       0.061212853 0.08883773 -0.12507683 -0.14503036
000170 1c 37 27 be 91 89 44 be c0 f2 99 bc 82 3c df 3d
       -0.16329616 -0.19193102 -0.01879251 0.10900213
000180 18 5e 55 bd 78 70 cf bc 6a 6a 8e 3d 93 62 3d 3e
       -0.052091688 -0.025322184 0.069538906 0.18494634
000190 f4 f5 47 3d 7d 4b 2a be 5b 05 36 3e d7 bc 35 be
       0.048818544 -0.16630359 0.1777548 -0.17747818
0001a0 18 e8 f0 3c dc 45 e3 bd c2 d2 f4 3d 24 6f 2b 3d
       0.029407546 -0.11097309 0.11954261 0.04185404
0001b0 28 97 60 bd 10 ca 42 3c 36 94 c4 3d 00 48 c8 3b
       -0.054831654 0.011888996 0.095985815 0.0061120987
0001c0 0e 85 9f 3d f8 d0 a4 3c 92 88 c9 3d 81 8b 24 3e
       0.0778905 0.020119175 0.09840502 0.16068842
0001d0 c4 dd 09 3d 5b 71 3f 3e 6c 03 6d bd 99 b6 5b 3e
       0.033658758 0.18695585 -0.05786459 0.21456374
0001e0 d0 14 ab 3c 28 ad 4d bd f9 3e 23 3e 26 b1 8d bd
       0.020883948 -0.050213963 0.15941991 -0.06918554
0001f0 8e 24 9a bd 67 1c 1e 3e 40 ff d0 3c f7 54 0a 3e
       -0.075265035 0.15440522 0.025512338 0.13508974
000200 7a 16 cd 3d 4e c5 02 be 34 53 61 3d f0 3a 52 bd
       0.10014053 -0.12770578 0.05501099 -0.05132574
000210 10 3c 9b bd 9e be 85 3d cf fd 0b 3e f0 cf 21 be
       -0.075798154 0.06530498 0.13671039 -0.15801978
000220 b0 3b fa bc 9d 21 31 3e eb 6d 0b 3e af 41 37 be
       -0.03054604 0.17297979 0.13616149 -0.1789615
000230 f2 3a 0c be 1f 15 20 be 11 6f 15 3e 62 2f 98 bd
       -0.13694361 -0.15633057 0.1459315 -0.074309126
000240 74 13 34 3d b5 88 28 3e 8b d3 f9 bd 40 e6 c3 bb
       0.043963864 0.164584 -0.12198552 -0.0059783757
000250 9d 8a 49 be d1 99 2a 3e d6 b4 c6 3d 5a e0 99 3d
       -0.19681783 0.16660239 0.097024605 0.07513495
000260 67 d5 41 3e cc 37 82 bd 80 c7 ad 3c e8 bf 83 3c
       0.18929063 -0.06358299 0.021213293 0.016082719
000270 d2 6f dc 3d a8 e9 06 be 86 bc 33 be 6f e5 2d be
       0.107635155 -0.1317507 -0.17552385 -0.16982053
000280 f3 a3 41 be ad da 45 3e 9c c4 38 be 3f 24 33 3e
       -0.18910198 0.193217 -0.1804375 0.17494296
000290 df 9b 50 3e f2 75 c3 bd cd f0 e2 bd 90 b2 3a 3c
       0.2037196 -0.09543981 -0.11081085 0.011395112
0002a0 e5 ee 05 3e 88 c0 b1 bc 61 3e ca bd 68 1f c2 bd
       0.13079412 -0.021698251 -0.09875179 -0.094786465
0002b0 d5 4a 0b be 51 40 17 3e a1 68 1e 3e e7 8d 13 3e
       -0.13602765 0.14770629 0.154696 0.144096
0002c0 40 20 1d bb ab 6c 5d 3e 6b b7 2d 3e a8 8d e1 bc
       -0.0023975521 0.21623485 0.169645 -0.027533367
0002d0 bc 67 40 be 12 ee 9d bd 98 37 6d bd 60 b8 55 bd
       -0.18789572 -0.07711424 -0.057914346 -0.052177787
0002e0 fa ea df 3d 4c 24 5a bd ce 74 80 3d c6 11 d0 3d
       0.1093349 -0.05325727 0.06272279 0.1015964
0002f0 5c b5 3d be 1e 5b 14 be f2 e5 3b be 4a 0f b5 bd
       -0.18526214 -0.14487883 -0.18349436 -0.08840807
000300 52 c6 98 3d fa a9 20 be e8 ba 34 be ba f4 a2 bd
       0.074597016 -0.15689841 -0.17649424 -0.07956834
000310 20 c6 1a bd 68 fd 34 be 37 20 31 3e da 92 35 be
       -0.037786603 -0.17674792 0.17297445 -0.177318
000320 9e 2f 8c 3d d7 88 1d be dc 73 41 3d 83 b3 d2 bd
       0.0684502 -0.15384232 0.047229633 -0.102881454
000330 e2 09 0e be 76 fe ea 3d 9e 24 f4 3d 80 c4 d9 bc
       -0.13870957 0.11474316 0.11921047 -0.026582956
000340 4e 3c d8 3d 1a 0c d9 3d 78 3e 08 3d 5f 45 45 3e
       0.10558377 0.10598011 0.0332627 0.19264744
000350 03 cc 2a 3e ff ad 27 3e ae b6 38 be da 58 ab bd
       0.16679387 0.16374968 -0.18038437 -0.083665565
000360 43 ec 54 3e fb 4e 46 3e 96 c8 d4 3d 40 a1 88 bc
       0.20793252 0.19366066 0.10389821 -0.016678452
000370 e0 e3 fe 3c 95 a5 54 3e 46 ae a7 3d da 91 4d be
       0.031114519 0.2076629 0.08187537 -0.20075169
000380 50 82 c3 bd c4 49 1f be 9b 33 20 3e b6 bf a2 3d
       -0.095463395 -0.15555483 0.15644686 0.07946722
000390 5e 4e 16 be f3 ce 20 3e 4a c0 a2 bd 88 b4 88 bd
       -0.14678332 0.15703945 -0.079468325 -0.066750586
0003a0 6b ca 2f 3e d6 0f 8d bd 38 10 a4 3c 00 56 41 be
       0.1716706 -0.06887786 0.020027265 -0.18880463
0003b0 e0 c5 aa bb ca f2 a0 3d b5 c4 3e be c8 47 e1 bc
       -0.005211577 0.07858808 -0.18629725 -0.027500048
0003c0 f8 8a 1c be a3 10 41 be 26 d0 dd bd 69 19 4c 3e
       -0.15287387 -0.18854003 -0.10830717 0.19931568
0003d0 ae c5 36 be f6 28 8f bd e0 28 d3 bb d7 92 52 be
       -0.17848846 -0.069902346 -0.0064440817 -0.20563827
0003e0 71 33 40 be 46 69 1f be 28 2b 1c be 3d b5 1b 3e
       -0.18769623 -0.15567502 -0.15250838 0.15205856
0003f0 62 ac bc 3d aa e6 e2 bd f0 4c 14 3c 4f 18 f2 bd
       0.09212567 -0.11079152 0.009051546 -0.11821043

mlp.0.weight f4 [32, 64]
000000 d2 d1 d3 3d 00 9c 6f bb 54 18 cf 3d ac 97 ad 3d
       0.103427544 -0.003656149 0.10112062 0.08476195
000010 10 dc b8 3d 58 36 a0 bc b0 15 49 3d 00 ef b3 3a
       0.090263486 -0.019557163 0.04909295 0.0013727844
000020 a0 2d b5 bc f8 2e 84 3c 54 42 4a 3d d0 33 a4 bc
       -0.022116482 0.016135678 0.04937966 -0.020044237
000030 88 da ab bd 98 89 73 3d 22 57 bf bd 4c 9e 3b bd
       -0.08391291 0.05945739 -0.09342791 -0.04580526
000040 20 0a ab bc ea 31 f3 3d 48 d2 ba bd 56 1f f8 3d
       -0.020878851 0.11874755 -0.09122139 0.12115352
000050 08 af f8 3d c0 72 a1 bd f2 45 da 3d c8 0f 99 bd
       0.121427596 -0.07883215 0.10657872 -0.07473713
000060 58 06 fc 3d 3a 7f f2 3d f0 55 20 bc 0e 26 9d 3d
       0.123058975 0.11840673 -0.009786114 0.07673274
000070 88 c5 6c 3d f8 f2 ab 3d d0 be a7 bd e8 8b f4 3c
       0.057805568 0.08395952 -0.081906915 0.029851869
000080 9c 8c d1 3d cc 0f 71 3d d8 c9 9b 3d a2 83 f4 3d
       0.10231897 0.058852956 0.07606858 0.119391695
000090 d0 d4 56 bd 18 9d a3 3d 4c 64 d6 bd 88 c0 8d 3c
       -0.052449048 0.07988948 -0.10468349 0.01730372
0000a0 1c 2a c2 3d 08 24 69 bd d0 62 29 bd 1c 83 af bd
       0.09480688 -0.056919128 -0.041354 -0.08569929
0000b0 70 5b be 3c 40 62 07 bd a0 c4 9d 3d 32 c5 cf 3d
       0.02323696 -0.033052683 0.07703519 0.10145034
0000c0 c0 5b 0a bc 78 bf 7a bd d0 ab 91 3d ec 60 e9 3d
       -0.0084447265 -0.061217755 0.07112849 0.113954395
0000d0 9a df 8d 3d 20 b6 a6 bd d0 8e 8e bd b0 aa db 3d
       0.06927414 -0.08140206 -0.06960833 0.107259154
0000e0 80 05 86 bd 14 32 3b 3d 10 e0 85 bd 50 0d 9e bd
       -0.06544018 0.045702055 -0.06536877 -0.07717383
0000f0 5a c9 86 3d 04 9f 0c 3d f4 ac c5 3d dc ca a4 bd
       0.065813735 0.034331337 0.09652129 -0.08046505
000100 10 c2 81 3d a0 7a e1 bc 36 34 84 3d 74 8f 7b 3d
       0.063358426 -0.027524292 0.06455271 0.061416104
000110 7e da 81 3d 60 50 a0 bb 78 4d a2 3c 68 1e 92 3d
       0.06340502 -0.004892394 0.01981233 0.07134706
000120 10 b7 65 3c 98 83 5e bd d0 b6 fa bc 88 00 2b bd
       0.014020696 -0.054324716 -0.03060475 -0.041748554
000130 bc 08 1a 3d 78 16 b5 bc 64 2b a4 3d d8 12 d0 3d
       0.037605986 -0.02210544 0.080160886 0.10159844
000140 ac 23 12 3d 5a f3 b4 3d 6c 78 b5 3d ac fd b9 bd
       0.03567855 0.08835478 0.08860859 -0.09081587
000150 4e 50 da bd 80 a8 bb bb 94 9f 3e bd a8 a5 7c 3d
       -0.10659848 -0.005726874 -0.046538904 0.06168142
000160 74 0e ea 3d b8 26 f5 3c fc b9 1a bd d2 46 e1 3d
       0.11428538 0.02992569 -0.037775025 0.10999836
000170 48 70 22 3d 08 4a 07 bd 0c d8 7b bd 60 4c 8e 3d
       0.03965786 -0.033029586 -0.061485335 0.06948161
000180 04 d7 57 bd 88 66 32 bd 4a 49 a0 bd 12 87 cb bd
       -0.05269529 -0.043554813 -0.07826479 -0.09937872
000190 3c 1a 4e bd 48 a0 1c 3d 5a 0f b9 bd 02 d0 b4 bd
       -0.050317988 0.038238794 -0.09036131 -0.08828737
0001a0 50 3c 9f 3d 96 7c e6 bd 76 a6 bb bd 1c 2d 8b 3d
       0.077751756 -0.11254232 -0.09162609 0.06795713
0001b0 3e 2e e5 3d 30 7f 51 bc 42 68 a6 bd 00 2b 3f bc
       0.111904606 -0.0127866715 -0.08125354 -0.011667967
0001c0 2c a5 33 3d ac 7e cb 3d e4 e5 ff bd 16 73 fa 3d
       0.043858692 0.0993627 -0.1249502 0.12228982
0001d0 b0 e3 9a 3d b6 38 e2 3d a0 48 58 bc 5c 0f 20 bd
       0.07562959 0.11045973 -0.013200909 -0.039077148
0001e0 86 7d f4 bd f0 86 d5 3c 98 25 b8 bd 20 61 b7 bc
       -0.11938004 0.02606532 -0.089915454 -0.02238518
0001f0 e0 01 e7 3d 70 e8 e1 3c 7a 6a b3 3d de 49 81 bd
       0.112796545 0.027576655 0.08760543 -0.06312917
000200 a8 3d cb 3d 78 d4 8e bc 06 cb ff 3d de 9f 84 3d
       0.09923869 -0.017435297 0.124898955 0.06475805
000210 c4 bb a3 bd ac e7 ca 3d 36 0f fd 3d 76 f9 b4 bd
       -0.07994798 0.09907469 0.12356417 -0.088366434
000220 78 fc 80 3d b0 38 d1 bc 36 3c c6 bd 00 12 64 3a
       0.062981546 -0.025539726 -0.09679453 0.0008700192
000230 08 2b e3 3c d0 af 87 bc 08 df de bd 26 17 e9 3d
       0.02773048 -0.016563326 -0.108823836 0.11381368
000240 08 77 29 3d 3c b3 bd bd fc 34 53 3d 70 bb 1a bc
       0.041373283 -0.09262702 0.0515642 -0.009444103
000250 54 41 29 bd 78 f8 a9 bd cc 52 cf bd c6 06 e9 bd
       -0.041322067 -0.08299345 -0.10123214 -0.11378245
000260 30 ab 9d bd 40 48 66 bd dc 46 f2 bd ec c0 71 bd
       -0.07698667 -0.056221247 -0.118299216 -0.059021875
000270 e0 e0 95 bb 80 1f 6c 3c b8 e4 ca 3c 22 b9 8e bd
       -0.0045739263 0.014411807 0.024767265 -0.06968905
000280 b6 d2 97 3d a2 a9 93 3d e0 54 43 3c 72 7c e1 bd
       0.07413237 0.07210089 0.011922091 -0.11010064
000290 96 ad a4 bd 28 c4 e1 3d e0 3f 90 bb c4 57 5c 3d
       -0.080409214 0.11023742 -0.0044021457 0.053794637
0002a0 f6 19 f0 bd d0 12 f5 3c 0c 46 91 3d bc 9d dd bd
       -0.11723702 0.029916197 0.070934385 -0.10821101
0002b0 76 04 cc 3d 54 59 15 bd f0 c9 51 bc 60 4b e6 3c
       0.09961788 -0.036462143 -0.012804493 0.028112113
0002c0 10 61 e8 bd 0e f2 a4 bd e0 3a 9e 3d 40 e9 c9 3c
       -0.11346638 -0.08053981 0.07726073 0.024647355
0002d0 7c 5c 2a 3d 92 08 85 3d 40 bf b0 3d 94 86 51 bd
       0.041592106 0.06495775 0.08630228 -0.051153734
0002e0 2c ad 9e 3d b4 eb fe bd 12 eb af 3d 00 86 18 3a
       0.07747874 -0.124473006 0.08589758 0.00058183074
0002f0 44 89 7c bd fc 3d bf bd b0 2e 79 3c a0 d2 b9 bb
       -0.061654344 -0.093379945 0.015208885 -0.0056708604
000300 c0 21 1c bd a0 bb 98 3d 8c 33 a5 3d 80 75 47 3d
       -0.038118124 0.07457662 0.080664724 0.04869604
000310 36 c6 ba 3d 80 97 66 bd c0 d6 4a 3d de c9 a1 bd
       0.09119837 -0.056296825 0.049521208 -0.07899831
000320 00 cf f0 3a 60 98 0b 3c 80 af 25 3c c0 e4 51 3d
       0.0018372238 0.008520216 0.010112643 0.051243544
000330 4e 44 dc 3d 60 79 76 3d f0 43 9f bc 50 65 3a 3c
       0.107552156 0.060174346 -0.019441575 0.011376694
000340 12 a0 dc 3d 70 02 01 bc 20 1d 8a bb 00 09 c2 3b
       0.107727185 -0.007874116 -0.0042148978 0.005921483
000350 14 cc af 3d 28 a3 01 bd d8 64 3d bd 58 5f b5 3c
       0.08583847 -0.03164974 -0.04623875 0.02214019
000360 00 ea 1a bc f0 d6 af bd c8 39 21 3d dc db 26 3d
       -0.009455204 -0.08585918 0.039361745 0.040737018
000370 a4 a7 66 bd 90 99 47 bd 22 23 8c bd cc a8 fc bd
       -0.05631222 -0.048730433 -0.068426386 -0.12336883
000380 e4 19 e1 3d 28 6b d3 3d 58 93 c3 3d 08 e2 c1 bd
       0.10991266 0.10323173 0.09549588 -0.0946694
000390 12 c6 f2 bd 8e 45 be 3d e0 73 fe 3d 3c ef 74 3d
       -0.11854185 0.0929061 0.12424445 0.059798464
0003a0 86 fd a8 bd 14 1e fe bd e4 47 71 bd f8 75 97 3d
       -0.08251481 -0.12408081 -0.05890645 0.07395548
0003b0 54 27 44 bd de 23 b6 3d a6 75 e7 bd e4 0d 4d bd
       -0.04788907 0.0889356 -0.113017365 -0.050062075
0003c0 30 e3 d5 3c a2 af d9 3d bc 2b 40 bd 48 bf 90 3c
       0.026109308 0.106292024 -0.04691671 0.017669335
0003d0 2a c4 a7 3d 98 09 56 bd a0 97 1d 3d 76 ee 99 3d
       0.08191712 -0.052255243 0.03847468 0.07516186
0003e0 aa 29 cb 3d 48 99 bf bc ea 69 91 bd e4 94 37 bd
       0.09920056 -0.02338852 -0.0710028 -0.044819728
0003f0 6a 48 86 3d 18 fe 11 bd 50 1b bb 3d 1c 46 14 bd
       0.06556781 -0.035642713 0.09136069 -0.036199674

mlp.0.bias f4 [32]
000000 00 ea 4a bd ac 7b 13 3d d0 7b e1 bc b0 61 4b bd
       -0.049539566 0.036006615 -0.027524859 -0.04965371
000010 aa 6e 8b 3d 90 9a da 3d 14 b8 cf 3d a0 42 f3 bc
       0.06808217 0.10674012 0.10142532 -0.029694855
000020 14 ca 04 3d c2 f8 ca bd 6c 54 9e 3d b0 df 5e 3c
       0.03241928 -0.09910728 0.07730946 0.013603136
000030 34 51 43 bd 4c 48 2f 3d 60 a6 b5 3b 98 95 89 3d
       -0.047684863 0.042793557 0.005543515 0.06717986
000040 58 ad b1 bc 80 12 2b bc 0a 2d ba bd ce 5d af bd
       -0.021689102 -0.010441422 -0.09090622 -0.08562814
000050 12 82 f1 bd 70 3c 0c bc a4 e9 f6 3d c8 65 be 3d
       -0.11792387 -0.008559331 0.12056282 0.09296757
000060 c8 94 90 bc e4 48 05 bd 8a ce e7 bd 70 a2 f2 bc
       -0.01764907 -0.032540217 -0.11318691 -0.029618472
000070 b8 23 fe 3d 54 83 b3 3d 38 b6 e7 bc 70 46 ea bc
       0.124091566 0.08765283 -0.02828513 -0.02859804

mlp.3.weight f4 [4, 32]
000000 e5 23 29 be ec 78 a1 bd 4c 13 6b 3d de d9 13 be
       -0.16517599 -0.07884392 0.05739145 -0.14438578
000010 b8 43 05 3d aa 6a f4 bd f8 83 33 be ac a2 1c bd
       0.032535285 -0.11934407 -0.17530811 -0.038241073
000020 28 64 06 be a0 05 de 3c 20 a1 c5 bb a4 c0 21 bd
       -0.13124144 0.027102292 -0.0060311705 -0.039490357
000030 d6 6c 1a be da 4c d4 3d 60 7e 9c bc 6a 88 b2 3d
       -0.1508058 0.10366221 -0.019103229 0.08717425
000040 f0 86 64 3c d3 09 bf bd 74 49 2b 3d 0c a1 29 3d
       0.013948187 -0.09328046 0.041818097 0.041413352
000050 e3 19 0d 3e ae 36 8d 3d 12 f5 eb bd 1a bd 8c bd
       0.13779406 0.06895195 -0.11521353 -0.06872006
000060 fa 49 7d bd 23 7b 20 3e be 84 db 3d e6 a9 92 3d
       -0.061838128 0.15671973 0.10718678 0.07161312
000070 a2 0a 03 be a8 31 d1 3c e8 d0 14 3d f1 e6 16 3e
       -0.12797025 0.025536373 0.03633204 0.14736535
000080 5b cd cf bd 1a 10 a1 bd 60 fb 02 bc 23 79 25 3e
       -0.1014659 -0.07864399 -0.007994503 0.16159491
000090 28 c0 5f 3d 4e ee fd bd 10 dc a7 3c fc e5 36 3d
       0.054626614 -0.12398969 0.020490676 0.044652924
0000a0 1b a7 09 3e 13 93 2f 3e 77 95 19 3e 00 cc 14 be
       0.13442652 0.17145948 0.14998423 -0.14530945
0000b0 c2 00 c8 3d 74 8d 72 bd 06 5a 9d 3d 12 59 cd 3d
       0.097657695 -0.05921693 0.07683186 0.100267544
0000c0 b4 be 25 be 4e 27 c4 3d 73 c7 2c 3e c3 32 d6 bd
       -0.16186029 0.09577809 0.16872959 -0.10458901
0000d0 c1 e2 34 3e c4 b3 cd bd f2 58 cb bd e9 bd 05 be
       0.17664625 -0.10044053 -0.09929074 -0.13060726
0000e0 b0 f8 43 bc 25 6a 2f 3e 9a 82 f0 3d 62 04 ec bd
       -0.011961147 0.17130335 0.1174366 -0.115242735
0000f0 02 95 a2 3d f8 ac f8 3c 43 71 19 be 4c 1d 1b bd
       0.07938577 0.030355915 -0.14984612 -0.037869737
000100 8e 1e 12 be 75 b7 13 be 00 7e fc 3b c9 92 e4 bd
       -0.14269468 -0.14425452 0.00770545 -0.111608095
000110 4c c4 0d 3d 73 23 cb bd a4 24 04 be 63 5d 1f be
       0.03461103 -0.09918871 -0.12904602 -0.15562968
000120 b8 96 f8 bc 58 53 b2 3c f8 d4 ef bc 68 5b 33 bd
       -0.030345306 0.021768257 -0.029276356 -0.043788344
000130 40 1f 17 bb 89 1c 34 3e d4 3c 89 3d ba 12 af bd
       -0.0023059398 0.1758901 0.06701055 -0.08548494
000140 d6 6f ca 3d 00 e8 ab 3a 7a c8 fd 3d 4d 7c 0c be
       0.09884612 0.0013115406 0.123917535 -0.13719292
000150 92 e2 ad bd ae 98 b2 3d c0 1f df 3b ba c2 e1 3d
       -0.084904805 0.087205276 0.006809205 0.11023469
000160 10 15 3c bd 14 dd ab bd 48 2e 4b 3d 5e 05 2f be
       -0.045918524 -0.08391777 0.049604684 -0.17091891
000170 5e 95 e8 3d 6d 4d 06 3e a8 a0 04 bd e9 e4 16 3e
       0.113566145 0.13115473 -0.032379776 0.1473576
000180 c5 f8 e3 bd 3a 8f ad 3d 7d e7 2f be 0e e1 9b 3d
       -0.111314334 0.08474584 -0.1717815 0.07611285
000190 78 95 4c 3d c9 7f 1f 3e e0 29 e1 3b 20 64 4f bd
       0.049947232 0.1557609 0.006871447 -0.050632596
0001a0 ce bc 0e be 92 2a 8f bd e4 4e 24 be d0 7b e7 bd
       -0.13939211 -0.069905415 -0.1604572 -0.11302912
0001b0 fa 50 c4 3d 08 d7 95 3d c6 4a c3 3d 76 f9 f9 bd
       0.095857576 0.073164046 0.09535746 -0.12205784
0001c0 b0 0b 06 3c 72 e9 83 3d c2 85 a3 3d b9 4b b6 bd
       0.008181497 0.064410105 0.07984497 -0.08901162
0001d0 60 77 ed 3b f6 3e de 3d 48 2d a2 bc 7e 5f bf 3d
       0.0072468966 0.108518526 -0.019796982 0.093443856
0001e0 fa f4 8d 3d f9 cc 1f 3e a6 27 f2 3d 80 41 8f ba
       0.06931491 0.15605535 0.118239686 -0.0010929555
0001f0 03 75 2a be e4 2c 40 bd fb 97 1b be 92 86 ba 3d
       -0.16646199 -0.04691781 -0.15194695 0.091076985

mlp.3.bias f4 [4]
000000 b3 e1 28 3e 48 25 fe bd 07 39 cb bd 0e 8a fa bd
       0.16492347 -0.124094546 -0.099229865 -0.12233363
