model3.pt (torch, 126277 bytes, 8 tensors)

convs.convs.0.bias f4 [64]
0.0 0.0 0.0 0.0 0.0 0.0 0.0 0.0
0.0 0.0 0.0 0.0 0.0 0.0 0.0 0.0
0.0 0.0 0.0 0.0 0.0 0.0 0.0 0.0
0.0 0.0 0.0 0.0 0.0 0.0 0.0 0.0
0.0 0.0 0.0 0.0 0.0 0.0 0.0 0.0
0.0 0.0 0.0 0.0 0.0 0.0 0.0 0.0
0.0 0.0 0.0 0.0 0.0 0.0 0.0 0.0
0.0 0.0 0.0 0.0 0.0 0.0 0.0 0.0
00000000: 0000 0000 0000 0000 0000 0000 0000 0000
00000010: 0000 0000 0000 0000 0000 0000 0000 0000
00000020: 0000 0000 0000 0000 0000 0000 0000 0000
00000030: 0000 0000 0000 0000 0000 0000 0000 0000
00000040: 0000 0000 0000 0000 0000 0000 0000 0000
00000050: 0000 0000 0000 0000 0000 0000 0000 0000
00000060: 0000 0000 0000 0000 0000 0000 0000 0000
00000070: 0000 0000 0000 0000 0000 0000 0000 0000
00000080: 0000 0000 0000 0000 0000 0000 0000 0000
00000090: 0000 0000 0000 0000 0000 0000 0000 0000
000000a0: 0000 0000 0000 0000 0000 0000 0000 0000
000000b0: 0000 0000 0000 0000 0000 0000 0000 0000
000000c0: 0000 0000 0000 0000 0000 0000 0000 0000
000000d0: 0000 0000 0000 0000 0000 0000 0000 0000
000000e0: 0000 0000 0000 0000 0000 0000 0000 0000
000000f0: 0000 0000 0000 0000 0000 0000 0000 0000

convs.convs.0.lin.weight f4 [64, 384]
0.0032726675 -0.04144948 -0.031933166 -0.08985411 0.032669574 -0.07459727 -0.04725399 0.01966706
0.09936303 -0.010346115 0.06748317 0.077652425 0.107089266 0.06355792 -0.089215375 -0.038438022
0.112030715 0.10001592 -0.03335484 0.043266147 0.0417739 -0.013674997 0.09708044 0.026133582
-0.048883468 -0.008385442 -0.025992878 0.09087402 0.0034044012 0.011585683 0.061866865 0.10978639
0.115492344 -0.06783071 0.060797393 0.08636579 -0.057069644 0.10438812 -0.037226103 0.07497926
-0.07141954 -0.06260623 -0.089007504 0.027342781 0.051664427 -0.107525475 0.02140595 0.08446847
-0.017980918 -0.057608727 -0.015515953 -0.05724358 0.015121758 -0.06287059 -0.025483645 -0.088778436
-0.036064416 0.06285317 -0.102011554 0.079713166 0.014930561 -0.06917004 -0.026089393 -0.03359615
-0.046424918 0.07349852 -0.084113985 0.07769473 -0.06924681 0.067247406 0.080703944 0.080688864
-0.06080244 0.029756159 0.07201752 -0.01467634 -0.008489452 0.10402569 -0.051202744 0.048700735
0.10551341 -0.11499337 0.08599065 -0.06499986 0.08014405 -0.047735356 -0.06791197 0.049912825
-0.11066661 0.017993987 0.03388682 -0.056914896 -0.025401868 0.04350312 -0.0044085532 0.09646721
0.07321672 -0.042606756 0.027330056 -0.01736369 0.09613867 -0.09885661 -0.05473508 -0.10289348
-0.10354185 0.075956866 -0.057584338 0.072236404 -0.078115 0.03371744 -0.0009529963 0.049546435
-0.016122252 -0.019365147 -0.08728182 0.022320434 -0.03191089 -0.03254366 -0.06958185 -0.084023
-0.09106761 0.11321062 0.05871509 -0.02318415 0.102369025 0.054115325 0.032319933 0.02113749
-0.04775758 -0.042081945 -0.032737657 0.0016025305 -0.014144301 -0.113082916 -0.0488905 -0.07854013
0.023089573 0.028990567 0.028489009 0.093526095 0.07953042 0.07301581 0.08215916 0.10170287
-0.06114055 0.061318368 -0.03708096 -0.016063392 -0.004348837 -0.07975414 -0.009945482 -0.04374829
-0.012417182 0.00729952 0.0485771 -0.027230881 -0.08842003 -0.104854286 0.012067407 0.08324216
-0.078777604 0.027832836 -0.028878763 -0.09677038 0.053286538 0.0056328624 0.0054531842 -0.06874302
0.07762422 0.0016646311 -0.08385052 -0.065155484 0.11132844 -0.065625936 -0.049349613 0.09930287
-0.0843911 0.0268092 -0.04598411 -0.069343306 -0.090848245 0.04765348 0.068894565 -0.112626456
0.114128456 -0.09654677 -0.09278522 -0.10295115 0.06744844 0.005749993 0.071987405 -0.070881754
-0.013924718 -0.09018722 -0.10300255 -0.024403535 0.094036415 0.04692556 -0.10594035 -0.0328634
-0.029902935 0.0010016859 0.0637881 -0.044125184 0.010091186 0.012503102 -0.0013475716 0.075667664
-0.036004737 0.033221588 -0.05058737 -0.044627205 0.10386507 0.072759435 0.11228816 -0.00927911
0.040594146 -0.106067024 0.059594974 0.07449494 0.07444739 -0.09416815 0.08694121 -0.073663354
-0.0766232 -0.022512197 -0.077490896 0.007877775 -0.054394197 0.060180306 -0.11567106 -0.013521932
-0.026665695 -0.10831935 -0.027458876 -0.08842252 0.031385824 0.090183616 0.06395784 -0.09201939
0.0935404 0.087133706 0.0850914 -0.09250003 -0.09112826 -0.0006417632 0.022841454 -0.10940383
0.07939133 -0.030826896 0.0060499907 -0.099321276 -0.073327035 -0.009778723 0.048161298 0.010578111
00000000: 407a 563b eec6 29bd 5acc 02bd 6e05 b8bd
00000010: 88d0 053d 74c6 98bd 668d 41bd d01c a13c
00000020: d87e cb3d c082 29bc 9e34 8a3d 3c08 9f3d
00000030: 9e51 db3d a82a 823d 8db6 b6bd 3071 1dbd
00000040: 5c70 e53d 26d5 cc3d 169f 08bd d837 313d
00000050: 1c1b 2b3d 180d 60bc 1cd2 c63d 1816 d63c
00000060: 083a 48bd 1863 09bc 04ef d4bc 281c ba3d
00000070: 601c 5f3b e0d1 3d3c 1c68 7d3d b0d7 e03d
00000080: 4087 ec3d d4ea 8abd b006 793d 8ce0 b03d
00000090: dcc1 69bd 70c9 d53d 667a 18bd ba8e 993d
000000a0: 6844 92bd b237 80bd 9149 b6bd f8fd df3c
000000b0: 149e 533d 5136 dcbd 885b af3c cefd ac3d
000000c0: b84c 93bc 21f7 6bbd a036 7ebc 3f78 6abd
000000d0: 40c1 773c 4cc2 80bd 14c3 d0bc 78d1 b5bd
000000e0: 48b8 13bd 2ab9 803d 6feb d0bd a840 a33d
000000f0: 509f 743c 06a9 8dbd 6cb9 d5bc 1e9c 09bd
00000100: 0e28 3ebd 6486 963d f443 acbd 6a1e 9f3d
00000110: 46d1 8dbd 02b9 893d 1c48 a53d 3440 a53d
00000120: fb0b 79bd 30c3 f33c ec7d 933d 0875 70bc
00000130: 5817 0bbc 6c0b d53d f8b9 51bd 6c7a 473d
00000140: 6a17 d83d a581 ebbd de1b b03d a61e 85bd
00000150: 9022 a43d 2686 43bd 6e15 8bbd 6471 4c3d
00000160: 2da5 e2bd 2068 933c e8cc 0a3d 981f 69bd
00000170: 9417 d0bc 5430 323d a075 90bb 9a90 c53d
00000180: a6f2 953d 6c84 2ebd 48e3 df3c 4c3e 8ebc
00000190: 5ae4 c43d 5675 cabd e431 60bd d1b9 d2bd
000001a0: c00d d4bd 468f 9b3d 8edd 6bbd aef0 933d
000001b0: c2fa 9fbd 4c1b 0a3d 80d2 79ba 34f1 4a3d
000001c0: d012 84bc a8a3 9ebc d0c0 b2bd 58d9 b63c
000001d0: feb4 02bd 804c 05bd ee80 8ebd 4014 acbd
000001e0: a881 babd f8da e73d 3c7f 703d b0ec bdbc
000001f0: daa6 d13d 08a8 5d3d e861 043d 8828 ad3c
00000200: 749d 43bd 1e5e 2cbd ec17 06bd 000c d23a
00000210: 80bd 67bc 0498 e7bd 6841 48bd a6d9 a0bd
00000220: 5826 bd3c a07d ed3c c861 e93c 9c8a bf3d
00000230: d8e0 a23d 5089 953d 1043 a83d 9849 d03d
00000240: 836e 7abd f828 7b3d 34e2 17bd 6097 83bc
00000250: b080 8ebb 2356 a3bd 60f2 22bc 6831 33bd
00000260: 7071 4bbc d030 ef3b c8f8 463d 4c13 dfbc
00000270: 9015 b5bd d8bd d6bd 60b6 453c de7a aa3d
00000280: 2756 a1bd b001 e43c 2893 ecbc 8d2f c6bd
00000290: fc42 5a3d e093 b83b a0b0 b23b 24c9 8cbd
000002a0: 72f9 9e3d c02f da3a d2b9 abbd 3d70 85bd
000002b0: 2a00 e43d e466 86bd d222 4abd 4e5f cb3d
000002c0: 3ed5 acbd f89e db3c d659 3cbd dd03 8ebd
000002d0: a50e babd 4c30 433d 9818 8d3d b3a8 e6bd
000002e0: 2ebc e93d 50ba c5bd 2d06 bebd 0dd8 d2bd
000002f0: 6822 8a3d 706a bc3b 226e 933d 742a 91bd
00000300: 8024 64bc 14b4 b8bd 00f3 d2bd ece9 c7bc
00000310: 2a96 c03d 0435 403d 41f7 d8bd c69b 06bd
00000320: 00f7 f4bc 004b 833a 56a3 823d 9cbc 34bd
00000330: 8055 253c d0d9 4c3c 00a1 b0ba a6f7 9a3d
00000340: b479 13bd 5c13 083d b434 4fbd 04cb 36bd
00000350: 36b7 d43d e602 953d 56f7 e53d 6807 18bc
00000360: 0c46 263d ab39 d9bd dc19 743d ce90 983d
00000370: e077 983d 3bdb c0bd 3c0e b23d d0dc 96bd
00000380: a0ec 9cbd 806b b8bc 8cb3 9ebd c811 013c
00000390: 73cc 5ebd a07f 763d f3e4 ecbd 188b 5dbc
000003a0: 0472 dabc 89d6 ddbd 70f1 e0bc de16 b5bd
000003b0: 6c8e 003d 30b2 b83d 54fc 823d a974 bcbd
000003c0: 1c92 bf3d 2873 b23d 6644 ae3d a870 bdbd
000003d0: 74a1 babd 003c 28ba 001e bb3c 1d0f e0bd
000003e0: ec97 a23d b088 fcbc 003f c63b f468 cbbd
000003f0: 7c2c 96bd f036 20bc c844 453d d04f 2d3c

convs.convs.1.bias f4 [64]
0.0 0.0 0.0 0.0 0.0 0.0 0.0 0.0
0.0 0.0 0.0 0.0 0.0 0.0 0.0 0.0
0.0 0.0 0.0 0.0 0.0 0.0 0.0 0.0
0.0 0.0 0.0 0.0 0.0 0.0 0.0 0.0
0.0 0.0 0.0 0.0 0.0 0.0 0.0 0.0
0.0 0.0 0.0 0.0 0.0 0.0 0.0 0.0
0.0 0.0 0.0 0.0 0.0 0.0 0.0 0.0
0.0 0.0 0.0 0.0 0.0 0.0 0.0 0.0
00000000: 0000 0000 0000 0000 0000 0000 0000 0000
00000010: 0000 0000 0000 0000 0000 0000 0000 0000
00000020: 0000 0000 0000 0000 0000 0000 0000 0000
00000030: 0000 0000 0000 0000 0000 0000 0000 0000
00000040: 0000 0000 0000 0000 0000 0000 0000 0000
00000050: 0000 0000 0000 0000 0000 0000 0000 0000
00000060: 0000 0000 0000 0000 0000 0000 0000 0000
00000070: 0000 0000 0000 0000 0000 0000 0000 0000
00000080: 0000 0000 0000 0000 0000 0000 0000 0000
00000090: 0000 0000 0000 0000 0000 0000 0000 0000
000000a0: 0000 0000 0000 0000 0000 0000 0000 0000
000000b0: 0000 0000 0000 0000 0000 0000 0000 0000
000000c0: 0000 0000 0000 0000 0000 0000 0000 0000
000000d0: 0000 0000 0000 0000 0000 0000 0000 0000
000000e0: 0000 0000 0000 0000 0000 0000 0000 0000
000000f0: 0000 0000 0000 0000 0000 0000 0000 0000

convs.convs.1.lin.weight f4 [64, 64]
-0.113084055 -0.118389755 0.19703357 0.07448809 -0.03611383 -0.097150825 -0.08884214 -0.19121382
0.12186636 -0.02783446 -0.094404556 0.06610547 0.20449619 -0.18257558 0.07521151 0.06814937
0.118122146 0.009663567 -0.14872363 -0.17907175 0.1503997 -0.18000896 0.19853188 0.031507447
-0.01938577 0.016761914 0.15103172 0.11837922 0.056329027 -0.16502896 -0.13640964 0.15819694
0.2051643 -0.18827832 0.17922698 -0.1584591 -0.034561202 -0.20685938 0.18400986 0.037626132
0.034868017 0.08960362 0.1726556 0.16421305 -0.001986742 0.20152636 0.00891158 0.071847335
-0.033804312 0.03927557 0.13404773 -0.054554284 0.054851577 -0.03559555 0.19864298 0.17824964
-0.11109834 0.039551213 0.07779877 0.0783519 0.178207 -0.06554918 -0.19012177 0.21258502
-0.012561932 0.17906503 0.114041254 -0.09659079 -0.08865525 -0.039543927 -0.1529004 0.15055539
-0.059265807 -0.08290005 -0.21592754 0.09625326 -0.076121524 -0.056879878 0.023868486 0.18258138
-0.028252363 -0.17403229 0.18040626 0.13222371 -0.07072702 -0.061602533 -0.08915678 -0.20896268
0.009996563 0.18021254 -0.103641234 0.02776426 0.06766255 -0.2096249 -0.10479967 0.21341209
0.03101024 0.16561727 0.09898679 0.20667075 0.15730985 -0.077158794 -0.012241378 0.19027968
-0.0064405203 0.13524567 -0.0756371 0.08500798 0.13940425 -0.17500603 0.036626205 -0.11766995
-0.14864174 0.051399514 -0.1689324 -0.1640227 0.14531882 -0.116610624 -0.15791565 -0.13217838
-0.1545589 0.17522492 0.1935427 -0.021502852 -0.12169131 0.12871622 -0.1986866 0.14064996
0.132553 -0.133066 -0.18081535 0.14168938 0.21264543 -0.067096844 -0.16084296 0.05087976
-0.12228689 -0.18455096 -0.14196584 -0.109098285 0.096045986 0.21426044 -0.038985565 0.15793733
-0.013384253 -0.16907835 -0.12093713 -0.14322333 -0.065523595 0.1502396 -0.06334305 0.011373758
0.09235959 -0.12040352 -0.03925757 0.0859998 0.11749335 0.16149457 0.21080647 -0.16072696
-0.08535214 -0.004264906 0.19528206 -0.18495634 -0.13573484 0.19469975 -0.16090888 -0.10872691
0.21030854 0.11491759 0.17471035 0.01133734 0.030773863 0.12711464 0.19894673 -0.16130158
0.10888477 0.0059099495 -0.052190796 0.10660641 0.08591215 -0.14732917 0.1810684 0.043736055
-0.1733862 -0.2067729 0.010014236 0.21143664 0.05605705 0.061776564 0.18037723 -0.07290144
-0.19791262 0.15848266 0.015280351 0.2118559 0.1485592 -0.07909055 0.20521988 0.11379419
0.19429661 0.006156504 -0.075332835 0.16149028 -0.1415973 -0.047510773 -0.17550106 0.1614094
0.15702517 -0.07703924 0.12020968 -0.21356 -0.08582543 -0.0767407 0.0035666227 -0.13607219
-0.16655532 0.15213461 -0.12299307 -0.1915567 -0.06344116 -0.17550418 -0.07553007 0.03901525
-0.17607786 0.11947943 0.19511198 -0.14324166 -0.20202842 -0.11095317 0.124072775 -0.19971986
0.085571185 0.16947694 -0.15163198 0.0480621 0.046268538 0.16189523 -0.026585504 0.1340981
-0.18779318 -0.038144708 0.09054421 -0.12708354 0.110932454 0.1892011 -0.0668353 0.095034465
0.20564915 -0.04404202 -0.18600103 -0.04826975 0.12899722 0.0913295 0.047191903 -0.0065840483
00000000: 9d98 e7bd 5476 f2bd 2bc3 493e 368d 983d
00000010: 18ec 13bd 03f7 c6bd def2 b5bd 8ecd 43be
00000020: 1295 f93d 1805 e4bc 2d57 c1bd 4e62 873d
00000030: 7367 513e 18f5 3abe 7e08 9a3d e691 8b3d
00000040: 06ea f13d f053 1e3c 024b 18be 965e 37be
00000050: 6102 1a3e 4554 38be f14b 4b3e f40d 013d
00000060: e8ce 9ebc 4850 893c 0fa8 1a3e ce70 f23d
00000070: 44b9 663d 5afd 28be f8ae 0bbe 61fe 213e
00000080: 9716 523e 08cc 40be 4787 373e 1a43 22be
00000090: 0c90 0dbd f2d2 53be 156d 3c3e dc1d 1a3d
000000a0: c4d1 0e3d 1a82 b73d a1cc 303e 7727 283e
000000b0: 0034 02bb ed5c 4e3e e001 123c b224 933d
000000c0: 6476 0abd 6cdf 203d cf43 093e 5074 5fbd
000000d0: 0cac 603d a4cc 11bd 1169 4b3e 1387 363e
000000e0: 8787 e3bd 7400 223d f654 9f3d f676 a03d
000000f0: e57b 363e a63e 86bd 48af 42be e3af 593e
00000100: 90d0 4dbc d35c 373e 768e e93d 64d1 c5bd
00000110: e290 b5bd d0f8 21bd ec91 1cbe 312b 1a3e
00000120: b4c0 72bd 80c7 a9bd 1c1c 5dbe 6e20 c53d
00000130: 9ae5 9bbd e0fa 68bd d887 c33c 9df6 3a3e
00000140: 8071 e7bc 8535 32be 6bbc 383e a765 073e
00000150: 54d9 90bd f052 7cbd d497 b6bd 50fa 55be
00000160: a0c8 233c a389 383e db41 d4bd e071 e33c
00000170: aa92 8a3d e9a7 56be 36a1 d6bd b388 5a3e
00000180: 3009 fe3c 9397 293e 96b9 ca3d 7fa1 533e
00000190: d515 213e 6e05 9ebd 1090 48bc add8 423e
000001a0: 000b d3bb d77d 0a3e a0e7 9abd aa18 ae3d
000001b0: fdbf 0e3e c834 33be 5c05 163d f1fc f0bd
000001c0: 8a35 18be 4c88 523d 9dfc 2cbe 91f5 27be
000001d0: 75ce 143e 8dd1 eebd a4b4 21be c559 07be
000001e0: b044 1ebe 296e 333e 0f30 463e c026 b0bc
000001f0: 4b39 f9bd 2fce 033e 8074 4bbe 8b06 103e
00000200: f9bb 073e 7442 08be a927 39be 0517 113e
00000210: b9bf 593e 126a 89bd 04b4 24be 4c67 503d
00000220: 8d71 fabd edfa 3cbe 7e5f 11be ec6e dfbd
00000230: c2b3 c43d 1767 5b3e 54af 1fbd 53ba 213e
00000240: a049 5bbc e022 2dbe e3ad f7bd 23a9 12be
00000250: 3c31 86bd 69d8 193e 00ba 81bd 0059 3a3c
00000260: 0627 bd3d 1f96 f6bd 8ccc 20bd aa20 b03d
00000270: 5aa0 f03d d55e 253e a7dd 573e 9c95 24be
00000280: 1acd aebd a0c0 8bbb 05f8 473e 3265 3dbe
00000290: 13fe 0abe 5f5f 473e 4cc5 24be 37ac debd
000002a0: 1f5b 573e ea59 eb3d 45e7 323e 40c0 393c
000002b0: 7819 fc3c 572a 023e b1b8 4b3e 3e2c 25be
000002c0: fafe de3d 40a8 c13b 04c6 55bd 7654 da3d
000002d0: b6f2 af3d 75dd 16be ff69 393e 9424 333d
000002e0: 278c 31be 46bc 53be c012 243c d982 583e
000002f0: 149c 653d 6c09 7d3d cfb4 383e 5a4d 95bd
00000300: 9ba9 4abe 4749 223e 705a 7a3c c1f0 583e
00000310: e71f 183e 3afa a1bd 2925 523e ee0c e93d
00000320: b1f5 463e 80bc c93b 1a48 9abd b55d 253e
00000330: e2fe 10be a89a 42bd 8db6 33be 8148 253e
00000340: 35cb 203e c0c6 9dbd 7e30 f63d 79af 5abe
00000350: 3ec5 afbd 3a2a 9dbd 00be 693b 8256 0bbe
00000360: 7a8d 2abe 2dc9 1b3e cae3 fbbd 7127 44be
00000370: 70ed 81bd 5eb7 33be 82af 9abd 74ce 1f3d
00000380: c14d 34be a2b1 f43d 6fcb 473e f1ad 12be
00000390: 8ae0 4ebe 6a3b e3bd de19 fe3d 5d83 4cbe
000003a0: f23f af3d 5d8b 2d3e 6a45 1bbe c4dc 443d
000003b0: 1484 3d3d ddc7 253e d8c9 d9bc 0351 093e
000003c0: db4c 40be a03d 1cbd 3e6f b93d 3022 02be
000003d0: 8e30 e33d efbd 413e f2e0 88bd 6ea1 c23d
000003e0: b195 523e 6865 34bd 0e77 3ebe 80b6 45bd
000003f0: d917 043e f60a bb3d 4c4c 413d 00bf d7bb

mlp.0.weight f4 [32, 64]
0.12344755 0.064295635 0.031413376 -0.076602966 0.0029302388 0.0145116 -0.05069062 -0.030316338
-0.020631254 0.030543521 0.061211288 -0.089291126 -0.043510035 -0.07658292 -0.06871481 -0.12400669
-0.023834586 0.12203595 0.060958996 0.024352923 0.073093876 -0.06312281 0.028436258 -0.014101058
0.055616587 0.05850652 -0.07805355 -0.013488442 0.060166746 -0.054539263 -0.10807946 0.046102077
0.08769365 0.08830938 -0.11937359 -0.082443595 0.055345908 0.11986445 -0.118187785 0.011583075
0.10884449 -0.08712 0.090715125 0.074357465 -0.07147691 0.00047016144 -0.08366534 -0.09843932
0.0617899 -0.08254278 -0.032027498 -0.018807799 -0.10826789 0.04599084 -0.07600914 0.121634886
-0.03134872 -0.083854094 -0.013261244 -0.041657344 0.116325006 -0.05138603 0.050901115 0.025759563
-0.10441245 0.059123427 -0.022073925 -0.09167318 0.11602382 0.0008779913 -0.0023680478 -0.116526514
-0.060719207 0.087139666 0.062445357 0.02760461 0.08626109 0.05336508 -0.03785412 -0.058215007
0.094916284 -0.09361225 0.07360667 0.12180963 0.028998435 -0.0915999 0.0072008222 -0.12425083
0.0510218 0.06204705 0.077372774 0.10222244 -0.08650781 -0.07636517 0.07257058 -0.016706213
0.10701676 0.0888167 -0.083372 -0.09873508 -0.058842048 -0.08482179 -0.016774893 -0.02562277
-0.07303655 0.09955576 -0.047320083 -0.12005624 -0.043628946 -0.09936568 -0.10303156 0.0043664873
-0.08045648 -0.0615654 0.110956445 -0.1199851 -0.00832282 -0.07749878 -0.09294486 -0.10528128
0.022696331 0.12445751 -0.12443127 -0.06532347 0.010110602 0.09171128 0.0917667 -0.095056415
0.09472066 0.048924416 -0.08174692 -0.02246578 -0.0674531 -0.0002117753 0.041601956 0.04029572
0.00510557 -0.1081478 -0.02915062 -0.0853091 -0.045514762 0.11269435 0.10619086 0.014476508
-0.007826567 -0.12277669 -0.02940391 -0.11305715 0.0695505 -0.11677332 0.022730246 -0.039171666
0.12346716 0.08426234 -0.11355387 0.026722252 0.011477783 0.057013422 -0.11855827 -0.037013307
-0.050073057 0.085740834 -0.038915873 0.057616606 0.114377365 0.035633877 0.101617336 0.018469706
0.04886724 -0.038487017 -0.00771071 0.06852035 0.070353895 -0.057595387 0.05883202 -0.012902692
0.10287358 -0.003873095 0.06287646 -0.10210596 -0.12381266 0.018986389 0.08879557 -0.005081296
0.10939893 0.04443869 0.10751513 0.046987772 0.11344291 -0.012772426 -0.07724023 0.035023257
0.113870814 -0.09308049 -0.08614804 0.006308511 0.08630036 0.11547306 -0.047750697 -0.10270919
-0.066591844 -0.08644162 0.088569626 -0.04484509 0.028375953 -0.06845693 -0.06605406 -0.11019048
0.10794802 0.10034339 -0.11677021 0.06919482 -0.039677307 0.004789293 -0.091015995 0.032045558
-0.06391396 -0.07133083 0.08635861 -0.10998009 0.11768992 -0.047874674 -0.103834674 0.031018525
0.00012587011 -0.029212669 -0.0953313 0.026292995 -0.036126286 -0.09070867 0.028880239 0.049842775
0.0967482 0.015422791 0.0077636987 -0.015329346 -0.067058176 -0.12431529 -0.09620628 -0.06423122
0.04165952 0.113146394 -0.08636907 -0.114043206 0.10018453 0.12475027 0.031267315 0.087147504
-0.11700098 0.021488696 0.003246501 -0.036163703 0.0014473796 -0.040752694 0.04876466 -0.048016965
00000000: 12d2 fc3d 6ead 833d 50ab 003d 04e2 9cbd
00000010: 4009 403b 10c2 6d3c f8a0 4fbd f859 f8bc
00000020: e002 a9bc 6836 fa3c b0b8 7a3d 44de b6bd
00000030: 9437 32bd 82d7 9cbd 5aba 8cbd 38f7 fdbd
00000040: c040 c3bc fced f93d 24b0 793d c87f c73c
00000050: 3eb2 953d 8846 81bd 28f3 e83c 2008 67bc
00000060: 38ce 633d 88a4 6f3d 8ada 9fbd a0fe 5cbc
00000070: 6871 763d 9064 5fbd c458 ddbd 88d5 3c3d
00000080: ba98 b33d 8cdb b43d 247a f4bd 30d8 a8bd
00000090: 64b2 623d 7e7b f53d 700c f2bd f0c6 3d3c
000000a0: dce9 de3d f86b b2bd dac8 b93d ba48 983d
000000b0: 7c62 92bd 0080 f639 bc58 abbd 8e9a c9bd
000000c0: 6817 7d3d 300c a9bd 442f 03bd d012 9abc
000000d0: 8ebb ddbd e460 3c3d aeaa 9bbd b61b f93d
000000e0: 8467 00bd b2bb abbd b045 59bc e4a0 2abd
000000f0: ce3b ee3d 287a 52bd b07d 503d b805 d33c
00000100: 32d6 d5bd 682b 723d 60d4 b4bc 26bf bbbd
00000110: e69d ed3d 0029 663a 4031 1bbb 74a5 eebd
00000120: b4b4 78bd 4876 b23d b4c6 7f3d 1023 e23c
00000130: a8a9 b03d 5895 5a3d ec0c 1bbd dc72 6ebd
00000140: 7863 c23d c8b7 bfbd 18bf 963d 5477 f93d
00000150: 208e ed3c ba98 bbbd e0f4 eb3b 3877 febd
00000160: 3cfc 503d 0c25 7e3d 9e75 9e3d 005a d13d
00000170: 022b b1bd 5865 9cbd e29f 943d 78db 88bc
00000180: 9a2b db3d 88e5 b53d f0be aabd 9e35 cabd
00000190: 5c04 71bd 0cb7 adbd 806b 89bc d8e6 d1bc
000001a0: 3094 95bd e4e3 cb3d b4d2 41bd 0ce0 f5bd
000001b0: 44b4 32bd 3c80 cbbd 3602 d3bd c014 8f3b
000001c0: 5ec6 a4bd 002c 7cbd 223d e33d c0ba f5bd
000001d0: 705c 08bc aeb7 9ebd e059 bebd b69d d7bd
000001e0: a8ed b93c 94e3 fe3d d2d5 febd 50c8 85bd
000001f0: f0a6 253c 20d3 bb3d 2ef0 bb3d f0ac c2bd
00000200: e8fc c13d f864 483d ee6a a7bd 280a b8bc
00000210: da24 8abd 0010 5eb9 d066 2a3d 200d 253d
00000220: a04c a73b 987c ddbd 48cd eebc 8ab6 aebd
00000230: b06d 3abd 4ccc e63d 987a d93d e02e 6d3c
00000240: 003b 00bc 5872 fbbd 78e0 f0bc 828a e7bd
00000250: 7e70 8e3d da26 efbd c834 ba3c 7872 20bd
00000260: 5adc fc3d bc91 ac3d ee8e e8bd a0e8 da3c
00000270: 500d 3c3c e886 693d aece f2bd 449b 17bd
00000280: 6819 4dbd e498 af3d 4066 1fbd 64ff 6b3d
00000290: ae3e ea3d d4f4 113d c01c d03d c84d 973c
000002a0: 0429 483d 90a4 1dbd 20aa fcbb 6654 8c3d
000002b0: b415 903d 24e9 6bbd d8f9 703d d065 53bc
000002c0: 62af d23d c0d3 7dbb 60c5 803d ee1c d1bd
000002d0: 7e91 fdbd 5889 9b3c 74da b53d 0081 a6bb
000002e0: 8c0c e03d 5805 363d e430 dc3d 4076 403d
000002f0: c254 e83d 7043 51bc 2030 9ebd 8c74 0f3d
00000300: 1a35 e93d fca0 bebd 626e b0bd a0b7 ce3b
00000310: 3ebe b03d 247d ec3d 3c96 43bd 3259 d2bd
00000320: 4e61 88bd 4e08 b1bd fe63 b53d 7caf 37bd
00000330: b074 e83c 2633 8cbd 5a47 87bd 8cab e1bd
00000340: da13 dd3d d680 cd3d 3825 efbd 04b6 8d3d
00000350: ac84 22bd 80ef 9c3b 9866 babd 3442 033d
00000360: 52e5 82bd e615 92bd c8dc b03d 3e3d e1bd
00000370: 6a07 f13d 3c18 44bd 46a7 d4bd 901a fe3c
00000380: 00fc 0339 684f efbc 0e3d c3bd 6864 d73c
00000390: 28f9 13bd 78c5 b9bd 4096 ec3c f027 4c3d
000003a0: ec23 c63d e0af 7c3c a066 fe3b f027 7bbc
000003b0: cc55 89bd 0499 febd cc07 c5bd a88b 83bd
000003c0: 2ca3 2a3d 4cb9 e73d 44e2 b0bd 7c8f e9bd
000003d0: 8c2d cd3d 127d ff3d 2812 003d 647a b23d
000003e0: 369e efbd 1009 b03c 40c3 543b 6420 14bd
000003f0: 00b6 bd3a 4cec 26bd 74bd 473d 70ad 44bd

mlp.0.bias f4 [32]
-0.09281957 -0.11836223 -0.119231954 -0.068541944 0.09103654 0.052039653 0.077371195 0.10564017
0.024274439 0.032138914 -0.00328058 0.06830402 0.035024986 -0.09161617 -0.06093192 0.09052621
0.08171427 0.033051908 -0.12140401 -0.030329734 -0.058907628 0.08176957 0.0792305 -0.1097057
-0.124960706 -0.11936039 -0.11284436 -0.09876439 0.093536004 0.09842454 0.042517677 -0.12080002
00000000: 3018 bebd e667 f2bd e22f f4bd b85f 8cbd
00000010: 5e71 ba3d 8827 553d ca74 9e3d e059 d83d
00000020: 30db c63c 18a4 033d 00ff 56bb fae2 8b3d
00000030: 5c76 0f3d 42a1 bbbd c093 79bd ce65 b93d
00000040: d059 a73d 7061 073d aaa2 f8bd 1076 f8bc
00000050: 2049 71bd ce76 a73d 9a43 a23d 62ad e0bd
00000060: 66eb ffbd 3873 f4bd f21a e7bd fc44 cabd
00000070: ce8f bf3d ce92 c93d 0427 2e3d 0066 f7bd

mlp.3.weight f4 [2, 32]
-0.1293029 0.08139725 -0.12891777 0.005397111 -0.100223325 -0.08756568 -0.10005162 -0.03408295
0.119482145 -0.13085024 0.04117915 -0.014795825 -0.023684353 0.13728718 -0.09376051 -0.10262111
0.13662247 0.05568844 -0.05756686 0.0785916 -0.097005986 0.03935574 -0.0558403 0.120535746
-0.033796817 -0.09790768 -0.1363157 -0.107425086 0.15331931 0.050081313 0.044723243 -0.06571025
-0.117687844 0.13827263 -0.066455066 0.1318836 0.08187671 0.1282384 0.08810757 0.090936616
0.0414214 -0.100135304 0.13730876 0.058107436 0.039618433 -0.17499147 -0.042609394 -0.019511461
0.037502393 0.15676256 0.14245568 -0.13684472 0.15680926 0.1714759 0.11923291 -0.043075785
-0.09221193 0.046217203 -0.124641314 -0.15891153 -0.08682472 0.1412109 -0.078597546 -0.048067212
00000000: fb67 04be 9ab3 a63d 0503 04be 40da b03b
00000010: e341 cdbd a355 b3bd dde7 ccbd 909a 0bbd
00000020: 0eb3 f43d 9bfd 05be 78ab 283d 306a 72bc
00000030: b005 c2bc 0395 0c3e 8305 c0bd 042b d2bd
00000040: c3e6 0b3e 9019 643d 3acb 6bbd a2f4 a03d
00000050: 13ab c6bd 7c33 213d ccb8 64bd 72db f63d
00000060: 886e 0abd d283 c8bd 5896 0bbe af01 dcbd
00000070: bdff 1c3e 1022 4d3d b82f 373d 1893 86bd
00000080: 5306 f1bd 5797 0d3e 9819 88bd 7f0c 073e
00000090: faae a73d ed50 033e be71 b43d fa3c ba3d
000000a0: 7ca9 293d bd13 cdbd ab9a 0c3e 1002 6e3d
000000b0: f046 223d f730 33be 3087 2ebd 80d6 9fbc
000000c0: 1c9c 193d 5d86 203e e7df 113e 0621 0cbe
000000d0: 9b92 203e 6197 2f3e 6230 f43d 3c70 30bd
000000e0: 9cd9 bcbd 404e 3d3d f243 ffbd b4b9 22be
000000f0: 29d1 b1bd 9799 103e c0f7 a0bd 20e2 44bd

mlp.3.bias f4 [2]
0.17009623 -0.14574254
00000000: b52d 2e3e 883d 15be
